checkpoint_actor.pth (torch_old, 541415 bytes, 6 tensors)

fc1.weight f4 [400, 33]
000000 b4 5e 7b bf 54 e6 7c bd 36 61 9f 3e fa 3e 30 3e
       -0.9819138 -0.061743096 0.31128854 0.17211524
000010 24 a7 33 be 84 72 91 3d c3 75 fa 3c 2b 02 42 be
       -0.17544228 0.0710192 0.030573731 -0.1894614
000020 e0 10 44 3e 49 e4 23 3e 2e 2b 19 bd 8f b1 1c be
       0.19147062 0.16005053 -0.037394695 -0.15302108
000030 c9 7b ba bc 02 03 21 3f 2e c6 d0 bd 44 2c d2 be
       -0.022764103 0.62895215 -0.1019405 -0.41049397
000040 fd 34 8c 3e ba 5e 90 3e 1f 89 8b be 59 5e f4 bd
       0.27384177 0.2819727 -0.27253053 -0.11932058
000050 71 18 aa 3d 2e f3 c1 3e 50 88 26 be 38 49 bb 3e
       0.08305443 0.37880844 -0.16262937 0.365793
000060 60 9f 2f 3e 38 c1 47 be 86 3e 0b 3e 84 99 af 3d
       0.1715064 -0.19507301 0.1359807 0.08574203
000070 c3 2d 04 3e 0a 50 b7 3c 05 16 21 bd f0 92 cc 3b
       0.12908082 0.022377033 -0.03932764 0.0062431023
000080 b7 fa 2f bf a6 3c a7 3e ba 37 02 3f a7 cc 10 3e
       -0.68741935 0.3266346 0.5086628 0.14140569
000090 b4 10 07 be c1 6c 25 3f f7 c6 02 3f 9c 45 87 bd
       -0.13189965 0.6461907 0.51084846 -0.06605074
0000a0 cd 9b e3 bd 23 ef 93 be 13 fd 87 3e d5 5f 96 3e
       -0.11113701 -0.28893384 0.26560268 0.2936999
0000b0 cd d8 ff bd 73 34 df 3e 9b f5 70 3d c5 9a b9 be
       -0.12492523 0.43594703 0.058827978 -0.36250892
0000c0 1b 69 f9 bd 35 5f 28 3e d5 4a 0e 3d 54 f1 1b 3d
       -0.121782504 0.16442569 0.034739334 0.038071945
0000d0 4a 01 fb 3e 89 f5 26 3e 80 b4 16 3f 0a 21 91 be
       0.4902442 0.16304602 0.5886917 -0.2834552
0000e0 44 c4 1d be 8d 99 e7 bd 3c 24 20 bf 60 0d 54 3d
       -0.154069 -0.11308584 -0.6255529 0.051770568
0000f0 cf c5 80 3f 29 0e 35 be 38 e9 20 bc a4 90 84 bf
       1.0060366 -0.17681183 -0.009821229 -1.0356641
000100 b6 cb ca 3c d5 5b eb bf 49 a4 b8 be a0 9b 81 3e
       0.02475534 -1.83874 -0.3606284 0.25314045
000110 fa c7 b0 3e 76 d6 02 3d 3d 69 82 3d 5c 42 0a 3e
       0.3452757 0.031942807 0.06367729 0.13501877
000120 c6 e5 02 bf a7 98 bc 3e f1 90 8e 3d 88 40 c1 3d
       -0.51131856 0.36835214 0.06961239 0.094361365
000130 48 78 cf 3d 65 7f 27 3e 48 9e 86 3d 6b 70 2d 3f
       0.10130364 0.16357191 0.065731585 0.6774966
000140 3f 39 cf be 8e f1 96 3e 77 03 75 3e af 42 cf bd
       -0.40473363 0.29481167 0.23927103 -0.10120141
000150 51 3b 7b 3e ce 5f 5b 3e 42 d7 8d 3d 35 2b ee 3d
       0.24534346 0.21423265 0.06925823 0.11629335
000160 dd 95 9f be d2 92 61 3d 75 00 c9 bd 6a 5c 11 3e
       -0.31169024 0.05507166 -0.0981454 0.1419541
000170 0e d3 40 bd c7 bd 41 3f d5 3e f0 be 8a c5 ec 3c
       -0.047076277 0.756802 -0.46922937 0.028902788
000180 4a 5e 4e bf e0 b5 4b bd ab 5c 88 3f ef 69 89 3e
       -0.80612624 -0.049733996 1.065328 0.26838633
000190 3d 0e 85 be 4e 60 70 be 96 cf 87 be bc c4 63 3e
       -0.25987425 -0.23474237 -0.26525563 0.22243017
0001a0 6d 5b 9f 3e 94 dd 21 be 42 82 35 be 9c 96 90 3d
       0.3112444 -0.15807182 -0.1772547 0.070599765
0001b0 2f b4 80 be 4e 00 70 3d 2a f4 ae 3d fa f6 6c be
       -0.2513747 0.05859404 0.08542664 -0.23141089
0001c0 76 7f e5 bd 28 69 e5 3d 06 06 16 be 45 00 a6 bd
       -0.11205952 0.112016976 -0.14650735 -0.0810552
0001d0 85 f8 5e 3e b1 a2 94 be eb d1 da 3e 64 e5 b4 bd
       0.2177449 -0.29030374 0.4273828 -0.08832815
0001e0 b0 9f 4e 3e 79 2c 8b bb 8e 15 1d 3d d5 4f f0 bd
       0.20178103 -0.004247245 0.038350634 -0.11733977
0001f0 1d c6 02 3e d1 26 0f be aa 3a 8b 3e d5 6c 5f 3e
       0.12770887 -0.13979651 0.27193195 0.2181886
000200 53 2c 0f bd bb bb 87 be 6a 4d 9d 3c e8 43 38 c0
       -0.03495438 -0.26510414 0.019201953 -2.8791447
000210 1c fe 4b be b5 99 48 3f e3 51 da be 9d 0f 64 bf
       -0.19921154 0.7835954 -0.426406 -0.89086324
000220 1a 94 e8 3e a4 c4 a7 bf 28 a8 5b be ed f6 37 3d
       0.45425493 -1.3106885 -0.21450865 0.04491322
000230 5e c3 f9 3e 7a 7d 01 bd e1 30 c9 bd 5e 11 65 3c
       0.48781866 -0.031613804 -0.09823776 0.013981191
000240 8c 94 a9 3e 14 a2 b4 bd 29 75 1e 3e d2 2d dd bc
       0.33121145 -0.088199764 0.1547438 -0.026999388
000250 70 c7 7d 3d 43 c7 09 bf d6 0a 1f be b8 8c 8b 3e
       0.061957777 -0.53819674 -0.15531477 0.27255797
000260 53 69 44 be 45 26 6c 3e 3f 5f 0e 3f 92 5b d4 3e
       -0.19180803 0.23061474 0.55614084 0.41476113
000270 d2 6a f7 3c 31 41 a9 3d 93 f5 97 3d b4 1f 46 3f
       0.030202303 0.082643874 0.074198864 0.77392125
000280 7b 3a fe bd 4f 77 3a 3d 7d 94 3d bf a0 b3 66 3b
       -0.12413498 0.045523938 -0.740547 0.003520228
000290 f2 ae 97 3f 31 ae b3 3c 62 39 04 3f 3d 5c a4 be
       1.1850264 0.021933647 0.5165006 -0.32101622
0002a0 6b 67 00 be 85 80 a0 3e a3 46 35 3f 71 e9 9e be
       -0.12539451 0.31348053 0.7081091 -0.31037477
0002b0 51 34 a2 3e 5e 3a 6e be 28 c3 55 3d 02 fc cd 3c
       0.3168054 -0.23264453 0.05218807 0.02514458
0002c0 2f 9f 84 bd 3c 29 9d bc 04 47 59 bd d1 25 b7 be
       -0.06475674 -0.019184701 -0.05304624 -0.3577104
0002d0 23 b2 bf 3e cc 55 6f be 4a 50 1e bf 13 d8 33 bd
       0.37440595 -0.23372573 -0.6184126 -0.043907236
0002e0 12 ef f1 bd d5 af ab bd e3 15 88 bd a2 3a 04 be
       -0.11813177 -0.08383147 -0.066447996 -0.12912992
0002f0 6d ea 33 be b7 06 3f be 7b a7 91 3c b9 e5 47 3e
       -0.17569895 -0.18654905 0.017780056 0.19521226
000300 b6 d2 5f 3f a3 06 27 bf d5 49 4b 3d 80 7f 5c bf
       0.87430894 -0.652445 0.04963096 -0.8613205
000310 63 5b 10 bd e9 99 07 c0 18 fa 58 be df 7e 7d 3e
       -0.035243403 -2.118769 -0.21189153 0.24755429
000320 d9 4d 8d bd 2d 54 ec bd 6f 07 1d 3f e3 a7 39 3e
       -0.06899614 -0.11539493 0.6133947 0.1813045
000330 c8 23 8d be 33 e2 7d 3e 81 3d d2 3e 10 0a 03 3f
       -0.2756636 0.2479332 0.4106255 0.5118723
000340 bb d6 9f 3c e3 e9 31 3e 8d 73 80 be 91 d2 43 3f
       0.019511571 0.17374377 -0.25088158 0.76493174
000350 1d 2e ed 3e 38 bc 97 bc 96 73 eb 3e 53 23 63 3e
       0.46324244 -0.018522367 0.45986623 0.22181444
000360 01 18 9b 3e 7e b0 1e bf 9d 79 3d 3e 87 68 b1 3d
       0.3029175 -0.61988056 0.18503423 0.08662515
000370 67 12 a3 bd c5 24 d9 3e 3d d1 ae bd 8b db ea be
       -0.07962494 0.42410865 -0.08536003 -0.45870623
000380 9a ae 27 bf 8b 74 08 3f a5 90 c8 3d d0 33 c4 3b
       -0.65500796 0.5330283 0.09793214 0.005987622
000390 3e 36 ee be ba 40 20 bd 52 0f 46 be 96 f3 d8 3e
       -0.46525759 -0.039124228 -0.19341782 0.4237334
0003a0 4c c5 3e bd d4 4a d6 3d b7 a9 f3 bd 7a 1d 2c 3e
       -0.046574876 0.10463491 -0.11897605 0.1680812
0003b0 26 7f f5 3f 84 a4 85 bd 6f 03 bb 3e dc 3c b1 bd
       1.9179428 -0.065255195 0.36526057 -0.08654186
0003c0 c8 ab 03 3f c7 f6 e1 bc 5b 14 c3 bd f3 a8 28 bc
       0.5143399 -0.027583493 -0.09525367 -0.010294187
0003d0 52 b1 b0 be 40 91 f4 bd 48 00 ac 3d df e8 0e be
       -0.34510285 -0.11941767 0.08398491 -0.13956021
0003e0 b8 ac 5b bc a1 93 ae 3c 8a b0 0f bd b1 4d d0 bc
       -0.013407879 0.02131063 -0.03508047 -0.025427671
0003f0 8a 64 06 be 07 c9 fd 3b 6a 9f 8e 3e 69 dd ab bd
       -0.1312429 0.0077449116 0.27855998 -0.0839184

fc1.bias f4 [400]
000000 76 e0 0b bd 5c 15 61 bf 2f b6 32 bf 8c ec 06 be
       -0.03414961 -0.87923217 -0.6980924 -0.13176173
000010 4b 8c 33 bf bd c3 74 bf 12 32 e6 be c1 bb 26 bf
       -0.70135945 -0.9561117 -0.44960076 -0.6513024
000020 20 81 b6 be ab 3c 40 bf 05 8b 1b bf ea 65 0b bf
       -0.3564539 -0.7509257 -0.60759 -0.54452384
000030 3f a9 8e be d6 eb e0 be fc 0d 11 bf b4 e4 4c bf
       -0.278635 -0.4392993 -0.56661963 -0.80036473
000040 1b 55 2a bf 03 1b 38 bf 91 20 b6 bd 18 0e f0 be
       -0.6653611 -0.71916217 -0.0889293 -0.46885753
000050 7f 3f b4 be e2 e6 38 bf 6f 65 4e be 2c 47 04 bf
       -0.35204694 -0.722273 -0.20155881 -0.516711
000060 98 48 04 be 20 91 c7 be 96 90 56 be 91 74 04 bf
       -0.12918317 -0.3897791 -0.20953593 -0.51740366
000070 04 d2 46 bf 57 17 d7 be 98 11 3a bf ab 12 73 be
       -0.7766421 -0.42009994 -0.72683096 -0.2373759
000080 32 63 f8 be ea 53 96 bf 5e f2 07 bf 3a 8f 18 bf
       -0.4851318 -1.1744359 -0.531042 -0.59593546
000090 1d 2e 0f bf 02 d9 fe bd 8e 42 7a be e1 a5 c8 be
       -0.5592974 -0.12443735 -0.24439451 -0.39189056
0000a0 03 cb 2f bf 5a 79 f4 bd 51 1b e9 be b8 30 3f bf
       -0.68669146 -0.119372085 -0.45528653 -0.74683714
0000b0 b2 70 1c bf ea c0 44 be c7 ae fb be be 9d f5 be
       -0.6110946 -0.19214216 -0.49156782 -0.4797191
0000c0 99 38 ee be 8f 79 09 bf 35 03 73 be 9b 7d 2f bf
       -0.46527556 -0.5370111 -0.23731692 -0.68551034
0000d0 7b 72 04 bf e8 19 1f be ba cd dd be 83 56 6c be
       -0.51737183 -0.15537226 -0.4332102 -0.23079877
0000e0 08 8a b1 be d4 56 f5 be 3c f7 e0 be 8e 4d 2c bf
       -0.34675622 -0.47917807 -0.43938625 -0.6730584
0000f0 db 26 1d bf ab 75 15 bf 21 86 ad 3e 43 29 30 bf
       -0.61387414 -0.5838267 0.33891395 -0.6881296
000100 5b ce e9 be 6f d1 13 bf 6d ca 93 3d c0 f8 59 be
       -0.4566525 -0.57741445 0.07216344 -0.21286297
000110 e1 a5 85 be 84 2a 6c be 90 e3 07 bf 55 93 b6 bd
       -0.26103118 -0.23063093 -0.5308161 -0.0891482
000120 fa 33 18 bf 4b 8c 0a bf 64 26 c2 be 1f 2f 9a be
       -0.5945431 -0.5412032 -0.37919915 -0.30114076
000130 f5 3d 2f be 3b 52 ff be 91 27 18 bf 4f 55 db be
       -0.17113478 -0.49867424 -0.59435374 -0.42838523
000140 d4 40 a7 bd f0 81 09 bf 6f d3 fe be c5 b1 31 bf
       -0.08166662 -0.53713894 -0.49770686 -0.6941188
000150 fa fe 97 be d4 61 0e bf 8e af c4 be f5 e6 29 bf
       -0.2968672 -0.55618024 -0.38415188 -0.6636804
000160 d6 e7 c0 3e 97 c3 aa be e8 fa 56 bf cd d1 42 bf
       0.37676877 -0.33352348 -0.839766 -0.7610138
000170 05 88 b0 bf af 7d d8 3d 68 a6 05 bf 96 6c fa 3d
       -1.379151 0.10570847 -0.5220704 0.122277424
000180 44 a5 04 bf a3 76 38 bf 4e 45 08 3e 2a ce ca be
       -0.51814675 -0.72056025 0.13307688 -0.39610416
000190 dc fa ae be 42 84 22 bf 1c 31 fd be 92 42 90 be
       -0.34175766 -0.6348306 -0.4945153 -0.2817579
0001a0 45 2d 0c bf 78 23 7e bd 97 8d ad 3d 6c 5a d1 be
       -0.54756576 -0.062045544 0.08474272 -0.408893
0001b0 11 3a 71 bf aa c3 7a 3e 95 f3 68 be ee 22 47 bf
       -0.9422923 0.24488702 -0.22749169 -0.77787673
0001c0 a3 56 45 bf 60 83 ca be fd f8 55 be 65 60 14 bf
       -0.7708532 -0.39553356 -0.20895763 -0.57959586
0001d0 8b a1 cc bd d0 71 d0 be ad 6f d4 be f2 f4 0f bf
       -0.099917494 -0.40711832 -0.41491452 -0.5623313
0001e0 90 1f 05 bf 99 bd ed bd d7 a4 eb be 84 8e 17 bf
       -0.52001286 -0.116084285 -0.460242 -0.59201837
0001f0 2d 7b 0e bf aa 67 53 be 17 41 16 bf f2 26 18 bf
       -0.556567 -0.20645013 -0.5869307 -0.59434426
000200 63 ae 2e bf 44 92 e4 be 68 54 e0 be 5a 89 28 bf
       -0.68234843 -0.44642842 -0.43814397 -0.6583458
000210 b5 05 a8 be 4d 62 17 bf 70 14 c8 3c ca 91 40 bf
       -0.32816854 -0.5913437 0.024423808 -0.75222456
000220 f7 33 08 bf d6 e2 60 be d0 64 06 bf 6e e3 00 be
       -0.5320429 -0.21961531 -0.5249758 -0.12586758
000230 f9 6f e0 be 7c d7 4a bf 74 a1 0d bf 8a c3 15 bf
       -0.43835428 -0.79235053 -0.5532448 -0.58501494
000240 d1 ad 02 bf 37 ad d3 be 16 24 a4 bf eb 8c b6 bd
       -0.5104647 -0.4134309 -1.2823513 -0.08913597
000250 ae df b3 be 81 32 95 bf d0 28 09 be ac 81 3f bf
       -0.35131592 -1.1656038 -0.13394475 -0.7480724
000260 92 b7 f1 be 8d 99 cb be 0b 95 23 be ee fb e1 be
       -0.47210366 -0.39765587 -0.15974824 -0.4413752
000270 7f a6 07 bf 39 82 82 bf 65 c6 57 bf 23 9b 99 be
       -0.5298843 -1.0195991 -0.842871 -0.30001172
000280 a0 80 f6 3d 08 2f 8c bf b9 60 31 bf 12 dc 14 bf
       0.12036252 -1.0951853 -0.6928821 -0.581483
000290 6d cf e6 bd 86 a3 2f bf 5e 66 77 bf 7f fd 99 be
       -0.11270032 -0.6860889 -0.96640575 -0.30076215
0002a0 bf 37 06 bf 84 18 ba be fe 03 03 bf 27 63 ee be
       -0.5242881 -0.3634683 -0.51177967 -0.46560022
0002b0 f8 02 09 bf f4 f5 08 bf b4 32 1a bf 1f 6d 07 bf
       -0.53520155 -0.53500295 -0.60233617 -0.5290088
0002c0 a9 c0 f0 be a1 2a 51 bf 2e 08 0d be 04 aa 8c be
       -0.47021988 -0.8170567 -0.13772652 -0.27473462
0002d0 0a 31 1c bf 80 a2 ba be 14 45 db bd af 43 3c bf
       -0.6101233 -0.36452103 -0.10706535 -0.73540777
0002e0 46 0f 4d bf 16 d8 ab be 5a 03 bc be 26 60 9b be
       -0.8010143 -0.33563298 -0.36721307 -0.30346793
0002f0 4e 0e c7 be 50 85 2f bf 0a 0a 1e bf 90 7a b8 bd
       -0.388781 -0.68562794 -0.6173407 -0.09007752
000300 dd 1a 16 bf 89 a7 83 be 2c e0 01 bf 36 58 3b bf
       -0.5863474 -0.25713757 -0.50732684 -0.73181474
000310 b0 37 b0 be 8f 36 e2 be 61 75 f8 be cd 35 05 bf
       -0.34417486 -0.4418225 -0.48527053 -0.5203522
000320 07 5e ef be e4 b0 14 bf b4 ab 09 bf 72 2c 50 be
       -0.46751425 -0.58082414 -0.53777623 -0.20329455
000330 a2 7d 05 bf d0 d3 f3 be 69 12 f4 be 21 80 29 bf
       -0.52144825 -0.47622538 -0.47670296 -0.66211134
000340 db 56 ad be 27 a3 a7 bd aa a7 fb bc 2f 68 81 be
       -0.33855328 -0.08185416 -0.030719597 -0.25274798
000350 de 55 14 bf 28 0d b8 be 0e 57 00 bf ff 8b ed be
       -0.5794352 -0.35947537 -0.50132835 -0.4639587
000360 6a 6e 78 be f9 07 fe be 90 3f e8 be 2a d5 13 bf
       -0.2426087 -0.49615458 -0.45360994 -0.5774714
000370 0d 6a 1f bf ce 30 15 bf 7c 9d 31 bf 9d 7c 20 bf
       -0.62271196 -0.58277595 -0.6938093 -0.62690145
000380 de 50 db be fd 53 03 bf 65 22 bf be 8c b3 41 bf
       -0.42835134 -0.5130003 -0.37330928 -0.7566459
000390 5e e1 3a bf f9 bb 89 be 2b 8a 0a bf 78 bb 03 bf
       -0.73000133 -0.26901224 -0.5411708 -0.5145793
0003a0 72 ea e6 be 60 e3 24 bf 84 4b 0f bf 95 96 a3 be
       -0.45100743 -0.64409447 -0.559746 -0.31950822
0003b0 47 27 4a be 0d 3b 7a be 19 56 be be ac 12 50 be
       -0.19741546 -0.24436589 -0.37175062 -0.20319623
0003c0 67 ff 77 bf 75 43 3e bf ec f4 43 be 77 56 e9 be
       -0.9687409 -0.7432168 -0.19136399 -0.4557378
0003d0 cd cb 04 be 5c 75 d6 be 85 5c 9c bd 9a 5a 2a bf
       -0.12968369 -0.41886413 -0.07634834 -0.66544497
0003e0 63 77 6a bf e2 65 ee be 15 2a 3f 3e 51 9d d7 be
       -0.9158842 -0.46562105 0.18668397 -0.4211221
0003f0 07 df 82 be 05 2c 0d bf 4c dd 3b bf ab ef 31 be
       -0.2556078 -0.55145293 -0.7338455 -0.17376582

fc2.weight f4 [300, 400]
000000 63 06 ac 3d 13 4e 57 3e 77 c1 f0 be 9f 90 21 3e
       0.08399656 0.21025877 -0.47022602 0.15777825
000010 ee d6 9e be 0d 74 ea 3e 87 2f 66 bd 2b f2 6b bc
       -0.31023353 0.45791665 -0.05619767 -0.014400999
000020 af 64 4b 3e d0 fd 23 bf ab 02 fb bd a8 de 10 bf
       0.19862626 -0.6405916 -0.12256368 -0.56589746
000030 15 64 a1 3e c8 f8 c2 3d 09 da c9 bb 1f 70 21 3d
       0.3152167 0.095201075 -0.006160025 0.039413568
000040 71 d2 16 3e 6f 8d 14 bf c8 bf 07 bf 25 01 be bc
       0.14728715 -0.5802831 -0.5302701 -0.023193905
000050 ec 5c 91 3d 54 ab 82 3e 98 25 20 bf e9 1d 08 3f
       0.070978016 0.25521338 -0.62557364 0.5317064
000060 16 c1 99 be 83 e3 80 bf 50 1a 0d 3e 03 71 59 be
       -0.30030125 -1.0069431 0.13779569 -0.21234517
000070 4b 55 b4 be aa 9c ce 3e 91 3c 9b 3e 7e fe 92 be
       -0.35221323 0.403539 0.30319646 -0.28709787
000080 2f bf 71 3e 10 93 28 bf 57 ef 34 be 22 c2 46 3e
       0.23608087 -0.658494 -0.17669426 0.19409993
000090 54 46 62 3d fe ff 1e bf 22 d8 7e 3e 9a 02 50 3c
       0.05524285 -0.62109363 0.24887136 0.012695933
0000a0 a8 64 04 3e 11 fc 44 bd 5f fc 87 bf 5a d7 32 bf
       0.12929022 -0.04809195 -1.0623893 -0.6985985
0000b0 89 df 35 be 77 35 35 3e fa d9 85 be 99 10 b6 be
       -0.17761053 0.17696176 -0.26142865 -0.35559538
0000c0 d8 ac 08 3f 3b e8 c3 bd c8 49 1d 3f 49 cc f3 3e
       0.5338874 -0.09565779 0.61440706 0.47616795
0000d0 c2 bc ab 3c b6 5e 32 be c0 5f 2e bf 6c c6 c6 bd
       0.02096403 -0.17418942 -0.6811485 -0.09705815
0000e0 f5 4e 13 be 9d 3f 5b 3e 7f 54 b5 3d e3 17 24 bf
       -0.14385588 0.21410985 0.08854007 -0.6409895
0000f0 a7 ed 23 be e4 f4 2c bf 33 6e cd 3e 52 da 49 bf
       -0.16008626 -0.67561173 0.40123138 -0.78848755
000100 d3 f2 7f 3e b9 88 35 3e dc 1d a3 bd e0 3b 85 3d
       0.24994974 0.17727937 -0.079646796 0.06505561
000110 90 3c 68 3e 39 bf f2 3e 66 08 47 3e f7 82 cc bd
       0.22679353 0.47411516 0.19436797 -0.09985917
000120 9b 45 8e be 73 2a 43 bd 69 63 e5 be 95 dd 09 3f
       -0.2778748 -0.047647905 -0.44802406 0.5385373
000130 b2 50 3d 3e 81 b3 e5 bb 9f d3 0c bd 3d ee 63 be
       0.18487814 -0.007009924 -0.034381505 -0.2225885
000140 a1 76 4d 3e ae 1a b5 3e 27 ab 2c bf 64 bf 18 3f
       0.20064785 0.35371917 -0.6744866 0.5966704
000150 13 a9 ca be c5 33 13 bf 72 9b b5 3d c7 15 bf 3e
       -0.39582118 -0.5750087 0.088675395 0.37321302
000160 8f c9 92 be d1 66 90 be ed b7 5f be 2b a9 30 3e
       -0.28669402 -0.28203443 -0.21847506 0.17252032
000170 96 3b 08 3f b1 de 04 3f ff 74 03 3e 8b 94 09 bf
       0.5321592 0.519023 0.12837599 -0.53742284
000180 d3 30 73 bd 89 64 8a 3e 38 61 1c 3e fb 45 d7 3d
       -0.059372734 0.27029827 0.15271461 0.105113946
000190 68 49 c2 3d ba 26 d5 3e 2a 38 d8 3d aa 41 19 3e
       0.094866574 0.4163111 0.105575874 0.14966455
0001a0 4f 08 d0 3e 47 11 b7 be bf ef f6 be fd 0d ed be
       0.4063134 -0.3575537 -0.48229787 -0.46299735
0001b0 2b 68 6c bf 72 e5 57 ba 01 4a 34 3f 13 49 1f bf
       -0.9234645 -0.0008235789 0.7042542 -0.6222088
0001c0 40 1c a1 3e 93 e6 40 be 07 93 ff 3d ad ab 78 bf
       0.31466866 -0.18837957 0.12479215 -0.97136956
0001d0 47 9a d9 bd f0 46 14 bf 3e fe b6 3e ed 51 cb 3d
       -0.10625129 -0.5792074 0.35740846 0.099277355
0001e0 2a bf 5a bc 49 16 ba 3e 52 05 27 3c bb 07 ac be
       -0.013351241 0.36345127 0.01019414 -0.33599648
0001f0 a2 4a 8e be cf 18 08 bf fe 9d 28 bf 6e 40 a1 3d
       -0.27791315 -0.53162855 -0.65866077 0.07873617
000200 fa 35 fd be d3 92 1e bf 66 21 1f 3f f6 e4 f4 bb
       -0.49455243 -0.61942786 0.62160337 -0.0074735833
000210 9b da 10 bd e4 5c 16 be ac bb e3 bd 21 ba 95 bf
       -0.03536473 -0.14683872 -0.1111978 -1.1697427
000220 80 03 d0 3c 76 59 0c be c3 f4 e8 3e 49 e7 dd be
       0.025392294 -0.13706002 0.45499238 -0.4334052
000230 23 d5 24 be ee ce 97 3d 1e 81 73 bc 4c f2 55 bf
       -0.1609693 0.074125156 -0.014862327 -0.8357284
000240 87 29 5b be 1e b7 e8 be a2 22 be be 87 77 7d 3e
       -0.2140256 -0.45452207 -0.37135798 0.24752627
000250 00 8f 43 bd 5c 77 27 3e 6d b5 39 bc 55 ae eb bd
       -0.047743797 0.16354126 -0.011334759 -0.115078606
000260 15 30 fc 3d 6e 63 33 3f 52 13 90 3e 8f 28 27 be
       0.123138584 0.7007359 0.2813974 -0.16324066
000270 76 3f 81 3e 48 4b 37 bf e3 e1 87 3e 94 f3 91 be
       0.2524373 -0.71599245 0.26539525 -0.28506148
000280 dc 26 b9 be 0d 04 18 3f 4a 31 4e 3f af fd 16 be
       -0.3616246 0.5938118 0.8054396 -0.1474521
000290 c9 3f 1e bf c2 5a 59 3e 80 03 d6 3e 01 53 19 be
       -0.6181608 0.21226028 0.41799545 -0.1497307
0002a0 ad 58 c4 3e 74 6e c7 be c6 a2 94 bf 3c 19 1a bd
       0.38348904 -0.38951457 -1.1612175 -0.03762172
0002b0 1a a6 cb 3e 44 c9 c6 3e f6 58 56 3f 15 5c 3e bf
       0.39775163 0.38825428 0.83729494 -0.74359256
0002c0 58 b7 70 be c0 69 b2 bf ac 5a b4 be 06 e4 d6 3d
       -0.2350744 -1.3938522 -0.35225427 0.10492711
0002d0 3c 76 06 bf fa e2 65 3e 17 9d a3 3e 50 34 ea 3d
       -0.5252416 0.22449866 0.31955788 0.11435759
0002e0 d7 68 7a bd be 25 ac bf 48 d8 12 be d7 c9 06 3d
       -0.06113514 -1.3449018 -0.14340317 0.032907333
0002f0 31 38 93 3d 37 b4 f9 be 46 5b 81 be e2 aa 78 3e
       0.07188452 -0.48770306 -0.2526495 0.24283937
000300 63 59 12 be 7d 4c 4f bf 96 df 18 bb 99 c4 67 3e
       -0.14291911 -0.80976087 -0.0023326627 0.2263359
000310 26 6c ec be bd ea 0d 3f 0e 09 e1 be ea f7 2c be
       -0.4617626 0.5543631 -0.4395222 -0.16891447
000320 3c 65 68 3e f7 11 a8 be 6c 37 b7 be ba b0 8d 3e
       0.22694868 -0.32826206 -0.3578447 0.27673894
000330 2f 31 c9 be c1 3f 0d be 1d 5a fa bd 0b a3 8a bd
       -0.39295337 -0.13793851 -0.12224219 -0.06769379
000340 cf ab 61 bf 27 91 13 3e 06 f0 ad be 40 79 b7 be
       -0.88152784 0.1441084 -0.33972186 -0.35834694
000350 55 02 b9 be 1e a0 03 3f d4 3e 33 bd e0 85 e7 3d
       -0.36134592 0.51416194 -0.04376109 0.113048315
000360 ca 06 78 3e 55 a3 46 bd 0c 62 d3 be c5 3f 7c 3d
       0.2422134 -0.04849561 -0.4128574 0.061584253
000370 71 5f a8 be aa e4 1a 3f 41 ad b6 3e a1 14 59 bf
       -0.32885316 0.60505164 0.35679057 -0.847971
000380 8a 9c 5b be cf 22 4d 3f 51 58 0f bf e8 d1 09 3f
       -0.21446434 0.8013124 -0.55994135 0.53835917
000390 e1 3c 06 3e 93 54 03 bd f0 63 33 3e 39 92 26 bc
       0.13109161 -0.032063078 0.17518592 -0.010166698
0003a0 25 1d b9 be 21 b5 b9 3e 5e b1 33 bf 4a 2c 49 bf
       -0.36155048 0.36271003 -0.70192516 -0.78583205
0003b0 f4 e7 7e be 7d 58 75 3b 5c d0 a3 be 29 41 5d bd
       -0.2489317 0.0037436776 -0.31994903 -0.05401722
0003c0 08 07 c0 3e 0b bf 16 bf ea b8 7c be d5 72 5f 3f
       0.37505364 -0.5888526 -0.24679914 0.87284595
0003d0 ec aa bf 3e c7 96 d7 bc de 41 41 bd 28 56 04 bf
       0.3743509 -0.026317013 -0.047181956 -0.51693964
0003e0 af 14 a0 bc cf 22 54 bc b2 16 ce 3c f4 fa 6d 3e
       -0.019541113 -0.012947752 0.025157306 0.23240262
0003f0 8d 24 e0 bc 16 d6 c0 3e 63 a7 36 be 1e d8 7e 3d
       -0.027361179 0.37663335 -0.1783729 0.062217824

fc2.bias f4 [300]
000000 03 b2 67 3e 50 54 cb be 3d fb 3e be 47 33 63 be
       0.226265 -0.39712763 -0.18650527 -0.2218753
000010 60 0b ea 3e 4b 47 8e 3e 09 7f bb 3d ca e8 8c bd
       0.45711803 0.27788767 0.091550894 -0.068803385
000020 f6 cf a5 bd f4 52 47 be 8b 35 93 bf 51 df 56 be
       -0.08096306 -0.19465238 -1.1500715 -0.20983626
000030 3b c6 d5 be 79 04 92 3b 43 cb f1 bd cc e3 3f bf
       -0.417528 0.0044560996 -0.11806347 -0.74956965
000040 f7 59 2b bf 78 cf 1e bf a8 f5 91 be af a8 a7 bd
       -0.6693415 -0.6203532 -0.28507733 -0.08186471
000050 12 6f 8d 3e 62 3d 19 bf 54 40 05 be b9 20 a5 be
       0.27623802 -0.5985929 -0.1301282 -0.32251528
000060 7c 8f 3e be 7f f6 be be b3 e5 19 bf 78 d2 bd 3d
       -0.18609422 -0.37297437 -0.6011612 0.09268659
000070 87 3d a8 3d eb cb ae be f1 75 65 3d 85 8d 97 bd
       0.082148604 -0.34139952 0.05602068 -0.074000396
000080 6c 54 ae bd c5 2d 11 bb 15 c3 7f be 23 3b d6 be
       -0.08512196 -0.0022152525 -0.24976762 -0.41841993
000090 7d 39 c3 be 8d c9 e9 bd 62 11 a6 bc 60 3b 95 be
       -0.38129798 -0.11415396 -0.02027196 -0.29146862
0000a0 bc 8b 20 bf 4b ab 6c be 01 a8 8a bc ee ec ae bd
       -0.6271322 -0.23112218 -0.016925814 -0.085412845
0000b0 91 b4 1d 3e e7 f7 29 be 40 3e d6 bd 76 06 ea 3d
       0.15400912 -0.16598473 -0.10461092 0.114270136
0000c0 41 e7 b0 be 28 c9 34 bd a6 9e a2 3e cf f4 e2 be
       -0.34551433 -0.04413715 0.31761664 -0.443274
0000d0 f9 4f 55 be 84 d0 a5 3d ad 69 46 be fa 0a eb 3c
       -0.20831288 0.08096412 -0.1937625 0.028691757
0000e0 f5 de a8 be 2c d7 8d be 2f 45 08 bf 8b 98 c0 3e
       -0.32982603 -0.27703226 -0.53230566 0.3761638
0000f0 d2 d8 90 be 67 ab d0 bd f7 d6 04 bf 32 32 d9 3c
       -0.2829042 -0.101889424 -0.5189051 0.026513193
000100 fe 28 bf be 92 47 4e be 38 2f 0e be 34 2c 15 3e
       -0.37335962 -0.2014449 -0.138852 0.14567643
000110 b3 a3 37 be 1a da 01 bf e4 a1 b9 bd 26 4f 20 be
       -0.1793354 -0.5072342 -0.09064081 -0.15655193
000120 45 95 22 bf aa e0 24 3d a4 fc 1c be 25 4e 79 be
       -0.6350902 0.04025332 -0.1533075 -0.24346216
000130 38 1b 66 be 8a d6 32 bd 6c de c1 bd 14 93 9c 3d
       -0.2247132 -0.04366163 -0.09466252 0.076452404
000140 bc b9 98 be 20 a9 14 be cd c0 3f be e6 55 16 bf
       -0.29829204 -0.14517641 -0.18725891 -0.5872482
000150 2b a5 78 be 69 01 1d bf b7 e9 3b 3e 8b d0 1d bd
       -0.24281757 -0.61330277 0.18350874 -0.03852896
000160 98 3c 8d 3e 3e 67 db be 25 f6 e6 bd ab 6c 3f bf
       0.27585292 -0.42852205 -0.11277417 -0.7477519
000170 73 85 1b bf 23 ab cb 3e b8 4b 07 bf cf 32 f8 3d
       -0.607505 0.39779004 -0.5284991 0.12119066
000180 43 3f c1 be d3 c0 fb be 54 c4 93 3c cb 24 81 3c
       -0.37743577 -0.4917055 0.018037952 0.015764615
000190 24 25 de bd 59 dd c7 be e2 50 03 bf 89 b1 db 3d
       -0.10846928 -0.39036062 -0.5129529 0.107272215
0001a0 03 ef e2 be 00 d4 b8 be a5 98 19 bf 81 5b a4 bd
       -0.44322976 -0.36099243 -0.5999854 -0.080252655
0001b0 bd bc b0 be dd f1 ac be fc 5e c8 bd 7e 31 cb be
       -0.34518996 -0.33778277 -0.09783742 -0.39686197
0001c0 0b cb 1e be 0c b0 10 be 31 e4 90 bc 12 83 18 bd
       -0.15507142 -0.14129657 -0.017686935 -0.037234373
0001d0 e9 a0 bf be 3d 0b 4d bf 71 1a 98 bd 86 64 c2 bd
       -0.37427452 -0.80095273 -0.07426918 -0.094918296
0001e0 c0 9e 53 bf 09 66 0a bc 2a 98 4a be 8f 08 8d be
       -0.8266411 -0.008447179 -0.19784608 -0.27545592
0001f0 1f ec 00 be b3 cd de be 28 6f 00 bf f4 fa 20 be
       -0.12590073 -0.4351631 -0.5016961 -0.15720731
000200 90 e9 03 3e 59 60 3e be c1 8f 92 be 6d ab 3e 3d
       0.12882066 -0.18591441 -0.286253 0.046550203
000210 f7 a6 a8 3d 8f 1d a1 be 0b 57 d9 be 34 a1 c3 be
       0.08234971 -0.31467864 -0.4244922 -0.38208926
000220 11 ba 2c be e2 0f f3 be 6a e7 58 3e 6e 2c d6 be
       -0.16867854 -0.47473055 0.21182027 -0.41830772
000230 8c ad cd 3e 21 46 e1 bd 31 bc c8 bd 97 39 81 be
       0.40171468 -0.10999704 -0.0980152 -0.2523925
000240 08 f5 37 bc 50 90 66 be 1b aa 17 bf 4f 26 a9 be
       -0.011227854 -0.22515988 -0.59243935 -0.3303704
000250 91 a9 10 3d d5 57 13 3d 88 59 c0 be 2e 17 a8 be
       0.03531796 0.035972435 -0.37568307 -0.32830185
000260 6d 06 0d 3b cc 80 9c bd 33 9f 5c bf 52 52 fa be
       0.0021518723 -0.076417536 -0.8618042 -0.4889093
000270 31 58 a7 be aa 01 9a bd ba e3 f3 be b8 e7 ab bd
       -0.32684472 -0.07519849 -0.4763468 -0.08393806
000280 9a a2 6a be f5 45 81 3e 35 23 ad be a1 8a bb be
       -0.2291359 0.25248685 -0.33815923 -0.36629203
000290 23 91 12 bd 18 c3 82 be 13 93 da be a3 3b 0b bd
       -0.035782944 -0.2553947 -0.42690334 -0.03399242
0002a0 96 4a 04 bf 27 89 37 be cb 43 9b bd 39 4e a6 be
       -0.5167631 -0.17923413 -0.0758129 -0.32481554
0002b0 2a cf 05 bf 98 bf b1 3e 3a dc ac 3e a8 f2 8f 3c
       -0.5226923 0.34716487 0.3376177 0.017571762
0002c0 ee a0 69 3e 76 2e c8 3d 4d 54 97 be 5c f0 91 3d
       0.22815296 0.09774487 -0.29556504 0.07125923
0002d0 f7 77 d6 be 2e 23 95 be 05 59 21 be f9 20 4f be
       -0.418884 -0.29128402 -0.15756615 -0.20227422
0002e0 96 e9 87 be 54 44 77 bd a7 a5 bd 3e be 4d 4a bf
       -0.265454 -0.060367897 0.37040445 -0.79024875
0002f0 71 34 d2 be 4a 96 e8 be fb d5 1e be 94 9d 26 3e
       -0.41055635 -0.4542716 -0.15511315 0.16271049
000300 13 4a 1a 3d d4 4c bc be c3 c6 b2 be 4f aa 12 bf
       0.0376683 -0.36777365 -0.34917268 -0.5729112
000310 83 ea 54 be 86 21 95 be f4 1b d8 be d8 a8 89 3e
       -0.20792584 -0.2912714 -0.42208827 0.2688663
000320 f5 3f 72 be 08 0d ef 3c 37 dc 76 bd b7 fd 25 be
       -0.2365721 0.029181018 -0.060268607 -0.16210066
000330 86 a3 84 3e 9e 21 0d bf b8 90 10 be 21 7f ec 3d
       0.25906008 -0.5512942 -0.14117706 0.115476854
000340 7f bf 9b be ac dd 3f be a0 8d 20 bf f3 7b f3 3d
       -0.30419537 -0.18736905 -0.627161 0.11888876
000350 2c 8f b3 be 3f 82 e1 be c2 0f d6 bc d2 c8 8a be
       -0.3507017 -0.44044682 -0.02613056 -0.2710634
000360 5e 7d b7 bd d0 ef ab be 4c ff c1 be 65 29 31 be
       -0.08959459 -0.335814 -0.3789009 -0.17300947
000370 f9 78 f8 be f7 3f 96 3d ac 68 20 bf 2d 83 80 bf
       -0.48529795 0.07336419 -0.62659717 -1.0040032
000380 9f 69 d3 be e5 e4 b4 bd de 85 0e 3e 1c 7d 10 bf
       -0.4129152 -0.08832721 0.13918254 -0.564409
000390 d6 a4 92 3d 2a d0 ea be 8b 88 44 be 77 cd 19 be
       0.07160346 -0.45861942 -0.19192712 -0.15019785
0003a0 b2 6c 61 be d3 09 8c bc 56 c3 df bd 7c 32 1a bd
       -0.2201412 -0.017094528 -0.10925929 -0.037645802
0003b0 57 49 a0 be 9e d8 4a be 19 62 85 3e 8a 96 5c bf
       -0.31305954 -0.19809195 0.26051405 -0.86167204
0003c0 31 a5 d9 be 15 b0 de 3e 1b 0e 42 be 01 d6 75 be
       -0.42508844 0.43493715 -0.18950693 -0.24007417
0003d0 ba 81 c5 be d1 68 a6 be 38 bb b1 3d 04 64 37 bd
       -0.38575536 -0.32501844 0.08678287 -0.044773117
0003e0 c0 78 0b bf b4 9f 25 bd 6f 06 2a be c9 bf 80 3e
       -0.54481125 -0.040435508 -0.16604017 0.2514632
0003f0 9c 13 a2 bd d3 13 fd bd 8b 29 93 3e 5c 53 0b be
       -0.079138964 -0.12357297 0.28742632 -0.13606018

fc3.weight f4 [4, 300]
000000 b8 c0 a1 be 99 e1 14 3f bd 44 3b 3f bc 32 73 3f
       -0.31592345 0.58156735 0.7315176 0.9499929
000010 04 4d d4 bf 71 9f 85 bd 33 1d b7 be 95 6e 21 b9
       -1.6586003 -0.06524552 -0.35764465 -0.00015395352
000020 a7 2d 13 3f 57 47 0b bf a0 6a 8e be 64 b0 4e be
       0.57491535 -0.5440573 -0.27815723 -0.20184475
000030 fb 5e 78 3d b9 3b 9d bd 0f 16 3a bf 6b 8b 92 3e
       0.060637455 -0.07677407 -0.7268991 0.28621992
000040 f3 96 6d 3f 44 d5 17 bf b5 58 b0 bd 09 31 99 3d
       0.92808455 -0.5930979 -0.086106695 0.07480056
000050 b4 f8 b3 bf 51 1c 11 3f 24 25 eb be 8c b3 35 bd
       -1.4060273 0.5668383 -0.45926774 -0.044360682
000060 f9 f1 38 3f 57 bf d2 3e 7b 46 85 bf f4 50 06 be
       0.7224422 0.41161606 -1.0412134 -0.13116819
000070 94 a8 46 bd e7 c5 8e bd 1a c8 5c 3e 54 38 e9 bc
       -0.048500612 -0.069713406 0.21560708 -0.028469242
000080 48 f7 51 bf c2 20 a0 bf ee d6 83 be 07 4d 19 3e
       -0.82017946 -1.2509997 -0.25749916 0.1497079
000090 93 ac c1 be bc 59 01 bd 7a 29 2b 3f 11 c7 8a 3d
       -0.37826976 -0.031579718 0.66860163 0.0677625
0000a0 a4 70 58 bd 3a 14 a1 be 8e 8f 88 3d bb 77 cc 3e
       -0.052841797 -0.31460744 0.06668006 0.39935097
0000b0 4c 9e c4 3d b3 ce 51 be 94 ef a5 3f 73 ec 9a bf
       0.09600505 -0.20489006 1.2963738 -1.2103409
0000c0 52 b3 99 3d 11 93 d1 be 84 66 ba bf 64 64 47 3f
       0.07504906 -0.40932515 -1.4562535 0.7788756
0000d0 ea 53 93 3f cc 3e 3b 3e de cd 39 3e 15 db af bf
       1.1509984 0.18285674 0.18144938 -1.3738734
0000e0 3b b4 da be 89 9a 9b 3f eb 7b 9e bf 98 19 1c be
       -0.4271563 1.2156535 -1.2381567 -0.15244138
0000f0 ab 57 41 be 24 6c 1d be ba 4f b9 3e ff 67 69 3e
       -0.18881099 -0.15373284 0.3619364 0.22793578
000100 dc c0 7d 3e 99 ea bb 3e 0b 52 25 bf 06 ab 0c be
       0.24780601 0.3670242 -0.6457831 -0.13737115
000110 7e 33 13 bf 42 ce 0c be 01 b2 d3 be a7 3f d9 be
       -0.57500446 -0.13750556 -0.41346744 -0.42431375
000120 6f f2 d9 3d 79 e6 53 3e e0 23 1f 3f 1d 03 e8 bd
       0.10641944 0.20693387 0.62164116 -0.11328719
000130 19 ab f5 be 86 dc 81 bf 0a 8f ec bd 28 79 61 bf
       -0.479821 -1.0145423 -0.1155072 -0.88075495
000140 54 e3 37 3d d0 2d 84 3f 6e 1e c1 3b e2 bd 1b 3f
       0.04489453 1.0326481 0.00589352 0.60836613
000150 39 6a 28 3f e0 f3 b6 be 33 0d f1 be fb 39 51 3f
       0.6578708 -0.35732937 -0.47080383 0.81729096
000160 e3 8f 98 bf 8f b0 78 bf 28 eb 8a 3e 63 33 c8 be
       -1.1918911 -0.9714441 0.27132535 -0.39101705
000170 c6 99 d9 3e 38 24 f9 be 65 18 d5 3e c8 5d 2d be
       0.42500132 -0.48660445 0.41620174 -0.16930306
000180 b2 82 2d 3f 1b c8 75 3e ee 7b 43 3e 4e 5f 5a bf
       0.6777755 0.24002115 0.19090244 -0.85301673
000190 29 6a 55 be 76 8f 58 3f a8 57 ba be 43 d2 85 bf
       -0.20841278 0.84593904 -0.36395 -1.0454792
0001a0 b1 ee 82 3f 1c 7e 9e bf 2f 2c 51 bd f1 a9 f8 3d
       1.0229093 -1.2382236 -0.051067527 0.12141789
0001b0 98 a7 e3 3e 07 7b ac be 76 d2 c4 be 45 e2 9f 3e
       0.444638 -0.33687612 -0.3844182 0.31227317
0001c0 1b 3e 20 3e b8 d6 ad 3e 43 3f 8a 3f 03 86 b3 be
       0.15648691 0.3395288 1.0800556 -0.3506318
0001d0 e7 60 ba bd 95 ea 63 3f 22 5d 45 3b 49 0f 10 be
       -0.09100514 0.8902982 0.0030115326 -0.14068331
0001e0 ac 04 11 3f 8a 58 d7 be 8f 6c 32 3e 6b 1f ad be
       0.56647754 -0.42059737 0.17424224 -0.33813033
0001f0 95 08 8e bf dd 5f a3 3f 29 3b a0 3e 33 2c d6 be
       -1.1096369 1.276363 0.31295136 -0.41830596
000200 b4 43 ef be 2e 1c 3d 3f 00 d7 35 3f 20 4f 0b bf
       -0.4673134 0.73871124 0.7103119 -0.5441761
000210 a9 66 9b 3e 13 2c 61 3d e5 44 22 3f 8d 4e ad be
       0.3035176 0.054973673 0.63386375 -0.33848992
000220 84 17 f7 be 23 ea 63 bf f5 ff 6a 3e 4d 4c 08 3f
       -0.48260128 -0.8902914 0.22949202 0.53241426
000230 d6 fa 29 3e fc 83 68 bd cb 1b 2a 3d c9 bd 7d 3e
       0.16599593 -0.056766495 0.04153041 0.24779429
000240 65 9d 39 3f d8 09 1a bf 3e f4 76 bf 87 67 a4 3e
       0.7250579 -0.6017127 -0.96466434 0.32110235
000250 a8 2c ae bf 21 5e ec 3e 28 d6 e2 be e7 f2 38 be
       -1.3607378 0.46165565 -0.44304013 -0.1806141
000260 cd 41 40 3e a5 5c 98 be 70 4a a9 3e 51 0a e9 3e
       0.18775101 -0.29758182 0.33064604 0.45515683
000270 30 57 2f bf 44 a9 2f 3f 36 08 0a bf dd d2 e1 3b
       -0.6849241 0.68617654 -0.5391878 0.006891592
000280 21 db 6b 3f 76 e8 20 bf fd 33 90 be 02 bb aa 3d
       0.9213124 -0.6285471 -0.28164664 0.0833645
000290 54 e0 22 bd 75 05 7d be f5 32 07 3e 5e 12 02 3f
       -0.039764717 -0.24709113 0.13203032 0.50809276
0002a0 57 3e 00 bd 1d 97 34 3c 0f 35 22 be 13 d3 f1 3e
       -0.031309452 0.011022356 -0.15840553 0.4723135
0002b0 b2 43 64 3f f2 5a cc 3e 83 db 13 be 99 75 3c bc
       0.89165795 0.39913136 -0.14439206 -0.011502647
0002c0 26 92 b8 3f 84 a8 9e 3f 7e ac e9 be 7d d3 e4 3c
       1.4419601 1.2395177 -0.45639414 0.027932877
0002d0 34 38 88 be 52 61 19 be d8 cb 99 3e a2 eb 89 3f
       -0.2660538 -0.14978531 0.30038333 1.0775034
0002e0 6e 95 02 bf 53 7e d8 be f3 81 b3 be 6e 75 e8 3e
       -0.5100926 -0.42283878 -0.3506008 0.45402092
0002f0 2b 2d d6 3e 05 ca b3 bd 43 f8 0e 3d 08 3d 62 3e
       0.41831335 -0.087787665 0.03490473 0.22093594
000300 0c 24 1a 3d b3 02 4b 3f e6 68 c3 be 6a 26 01 be
       0.037632033 0.79300994 -0.3816597 -0.1261231
000310 08 6d a7 3f 9a 53 ff be 07 a1 3b be 26 f0 70 bf
       1.3080149 -0.4986847 -0.18323146 -0.9411644
000320 30 3d 0f be 4d 18 23 3f aa e5 d8 3e 22 59 6c be
       -0.13988185 0.63708955 0.4236272 -0.23080876
000330 1b 08 fc 3a 12 65 f9 b9 ea 9a 5f 3f fb 9c bb 3e
       0.001922849 -0.00047568284 0.87345755 0.36643204
000340 5d f9 32 3f 2b 4e a4 3e ad 3f 17 be 31 3c d4 3e
       0.6991175 0.32090887 -0.14770384 0.41452172
000350 01 f0 74 3e 41 2c 2c 3e c1 65 0a be 3b ea 5b 3f
       0.23919679 0.16813757 -0.13515379 0.8590428
000360 1a 9a 85 3f 75 aa fa be 41 a3 5e 3f d5 0d 12 bf
       1.0437653 -0.48958173 0.86967856 -0.57052356
000370 b9 e2 a3 bd 34 99 2b be cf a1 63 3e 72 26 8c be
       -0.08002228 -0.16757661 0.22229694 -0.2737308
000380 7e bb 6f 3f 62 27 85 3f c4 29 db be d0 8f 8e 3e
       0.93645465 1.0402644 -0.42805302 0.27844095
000390 99 4f 10 3e f5 7b d9 be 1c 99 84 3d 48 44 83 bf
       0.14092864 -0.42477384 0.06474516 -1.0255213
0003a0 dd 0b 55 bd a7 e4 86 3f 4a ff 1a be 5e 00 ae bf
       -0.052013267 1.0538529 -0.15136448 -1.3593862
0003b0 2f 32 be 3e a2 f0 a4 3d 75 d0 0f bd d3 bf 60 3f
       0.37147662 0.080537096 -0.03511091 0.877927
0003c0 5a c9 2e 3e b7 31 9e bf 0f 60 3a bf 2b 90 05 3d
       0.17068997 -1.2358922 -0.72802824 0.032608192
0003d0 8b 22 be 3e 41 89 aa 3e b9 a3 99 3d a8 f4 80 be
       0.3713573 0.3330784 0.07501931 -0.25186658
0003e0 b4 46 75 be dd 22 08 bf ce ce a4 3e 11 08 1c bf
       -0.23952752 -0.531782 0.3218903 -0.6094981
0003f0 59 30 c7 3e dc 4c 0c be 82 39 f4 be fb e0 d4 be
       0.38904074 -0.13701195 -0.47700125 -0.41577896

fc3.bias f4 [4]
000000 50 f2 5b be 45 02 9f be 39 7d 94 bd 30 88 96 3d
       -0.21479154 -0.3105642 -0.07250447 0.073501945
