checkpoint_actor.pth (torch_old, 541413 bytes, 6 tensors)

fc1.weight f4 [400, 33]
0	0xbf2094ef	-0.62727255
1	0xbe9eee53	-0.31041202
2	0x3e66b0d0	0.22528386
3	0xbe95e9b4	-0.29279864
4	0x3e1b597a	0.15170851
5	0xbe6e1fcc	-0.23254317
6	0xbe958d06	-0.29209155
7	0xbdb4d327	-0.088293366
8	0xbe1e57d5	-0.15463193
9	0xbd6db7ad	-0.058036495
10	0xbd1f3c94	-0.03887613
11	0x3cfcf327	0.030877663
12	0xbc238410	-0.009980217
13	0x3f28b6fd	0.6590422
14	0x3e369ff8	0.1783446
15	0xbdc743fd	-0.097297646
16	0x3efd016e	0.49415153
17	0x3a2bdaed	0.0006555755
18	0x3ea8a0dd	0.3293523
19	0x3e09cb53	0.13456468
20	0x3d2e8a45	0.042612333
21	0xbe3b0f8a	-0.18267646
22	0xbda91015	-0.082550205
23	0x3e0a0a2f	0.13480447
24	0x3c2303b2	0.0099496115
25	0xbe691879	-0.22763242
26	0xbf0c0411	-0.54693705
27	0x3e299999	0.16562499
28	0xbdabeb6c	-0.083945125
29	0x3cb7500a	0.022377033
30	0xbdf424b8	-0.11921066
31	0x3bcc92f0	0.0062431023
32	0x402152d1	2.5206797
33	0x3ec76aa6	0.38948554
34	0x3f05f60e	0.52328575
35	0xbe36b616	-0.17842898
36	0x3e3702fb	0.1787223
37	0xbe6ab7e6	-0.22921714
38	0x3ed43329	0.41445282
39	0xbea272be	-0.31728166
40	0xbecfe819	-0.40606764
41	0x3e9d0830	0.3067031
42	0x3e60502e	0.21905586
43	0x3c58384f	0.013197019
44	0x3ebed73d	0.3727359
45	0xbeeca975	-0.46223035
46	0x3ea4763a	0.3212145
47	0x3f2e6e00	0.68136597
48	0xbe2303ed	-0.15919466
49	0x3dce48fc	0.100725144
50	0xbdeffd74	-0.11718264
51	0xbe7105dd	-0.23537393
52	0x3d856101	0.06512643
53	0xbe3f5bc6	-0.18687353
54	0xbf055d76	-0.52095735
55	0xbf02e58b	-0.51131505
56	0x3f230ea5	0.6369422
57	0x3ea351b8	0.31898284
58	0x3db19ba3	0.086722635
59	0xbe38feab	-0.18065898
60	0x3e8cd7e3	0.27508458
61	0xbe357a61	-0.17722465
62	0xbc20e938	-0.009821229
63	0xbe9c0345	-0.30471244
64	0x3ccacbb6	0.02475534
65	0x3e8b14b9	0.27164248
66	0xbe2f9dc8	-0.17150033
67	0x3e929f27	0.2863705
68	0x3e4a5ec9	0.1976272
69	0xbeb55323	-0.3541499
70	0x3f23a218	0.6391921
71	0x3eee56ae	0.46550506
72	0xbdcab103	-0.098970436
73	0xbd926e03	-0.07149889
74	0x3eedd349	0.4645026
75	0x3df7fa73	0.12108316
76	0x3e4b46c2	0.1985121
77	0x3dca2add	0.09871457
78	0xbdb75ff5	-0.08953849
79	0xbd705869	-0.058678064
80	0xbd46ad13	-0.0485049
81	0x3f02a386	0.51030767
82	0x3e0167f5	0.12637313
83	0xbe2d883e	-0.16946504
84	0xbd4772b4	-0.048693374
85	0x3dd8a4e7	0.105783276
86	0xbe3b8fab	-0.18316524
87	0x3ef177dd	0.4716176
88	0xbe8866b8	-0.26640868
89	0x3e91d91d	0.28485957
90	0xbbcf2836	-0.006321932
91	0xbb2e536b	-0.0026600014
92	0x3e45ff0b	0.19335572
93	0x3e82c906	0.25543994
94	0xbeac54e9	-0.3365853
95	0x3cecc58a	0.028902788
96	0xbe9c0a14	-0.3047644
97	0xbd4bb5e0	-0.049733996
98	0xc03863bd	-2.8810875
99	0x3f34a598	0.70565176
100	0x3de2cdb6	0.110743925
101	0x3f6ea57d	0.93221265
102	0xbdc0cf4d	-0.094145395
103	0x3ea3de5b	0.3200558
104	0x3ede2bb3	0.43392715
105	0x3de75825	0.11296109
106	0x3dd90231	0.10596121
107	0xbeed94c9	-0.46402577
108	0xbeac3c28	-0.33639646
109	0xbd043bc1	-0.03228355
110	0x3d0b1f15	0.03396519
111	0x3e3027ec	0.17202729
112	0xbe824085	-0.2543985
113	0x3d6e9929	0.058251534
114	0xbf43ec1f	-0.7653217
115	0xbde590d8	-0.112092674
116	0xbe9b65aa	-0.30351
117	0xbe5e18c7	-0.2168914
118	0xbd12e788	-0.035865337
119	0xbdd00d68	-0.10158807
120	0x3d0d4c13	0.03449638
121	0xbe388f68	-0.18023455
122	0xbead0892	-0.337956
123	0xbd15423f	-0.03644013
124	0xbe856cf7	-0.26059696
125	0x3e05d340	0.13068867
126	0x3f1fbbab	0.62395734
127	0x3e2f0a63	0.17093806
128	0xbd0f2c53	-0.03495438
129	0xbf1dfc20	-0.6171284
130	0x3c9d4d6a	0.019201953
131	0xbfcd13d7	-1.602168
132	0x3e155373	0.14582615
133	0xbf160acf	-0.5861024
134	0x3eba6128	0.3640225
135	0xbe91918b	-0.28431353
136	0xbd58ae74	-0.052900746
137	0x3ea17308	0.31533074
138	0x3cbb89c3	0.022892838
139	0x3e8e235d	0.27761355
140	0x3dd1492a	0.10219033
141	0x3f0562a8	0.5210366
142	0xbd00c9a0	-0.031442285
143	0x3db0b6e6	0.08628635
144	0x3cd3a746	0.025836598
145	0xbdfd23de	-0.12360357
146	0x3f01f19a	0.5075928
147	0xbebab2f5	-0.36464658
148	0xbd3e3cb7	-0.04644462
149	0x3e1f03ba	0.15528765
150	0xbe477646	-0.19478711
151	0x3d834b81	0.064108856
152	0xbddfc57f	-0.10926341
153	0xbb215848	-0.002461927
154	0x3de633be	0.11240338
155	0x3d8c2bd0	0.06844294
156	0x3d6ca497	0.057774153
157	0x3d392442	0.045200594
158	0x3e9be356	0.3044688
159	0x3e685a48	0.2269069
160	0x3e03b150	0.12860608
161	0x3d3a774f	0.045523938
162	0xbe462de6	-0.19353446
163	0x3b66b3a0	0.003520228
164	0x40427de1	3.038933
165	0x3e8540d5	0.26026025
166	0x3e84b321	0.25917915
167	0xbe791d3a	-0.24327555
168	0xbb8e3060	-0.004339263
169	0xbf1ce65e	-0.6128901
170	0xbe1076e3	-0.14107852
171	0x3ea7995f	0.327342
172	0xbddffc0b	-0.10936745
173	0x3ea85a11	0.32881215
174	0xbe384d4c	-0.17998236
175	0xbce5bc42	-0.02804387
176	0xbe45b3ba	-0.19306841
177	0x3e20b445	0.15693767
178	0xbf39a780	-0.7252121
179	0xbc08fedd	-0.008361545
180	0x3d9c1d0f	0.0762273
181	0xbee77409	-0.45205715
182	0x3ea42f99	0.32067564
183	0xbe9e0c1b	-0.3086861
184	0xbd2c8fcf	-0.042129334
185	0x3f0db259	0.5535026
186	0x3f138966	0.5763153
187	0xbd4787dd	-0.048713554
188	0xbed8a4f2	-0.42313343
189	0x3df09c05	0.11748508
190	0xbceab7b0	-0.028652042
191	0x3eeb699c	0.4597901
192	0x3ee8ab53	0.4544321
193	0xbe53e420	-0.20692492
194	0x3d4b49d5	0.04963096
195	0xbee204ea	-0.44144374
196	0xbd105b63	-0.035243403
197	0xbee2c222	-0.44288737
198	0x3d929f40	0.07159281
199	0xbee9798f	-0.45600554
200	0xbee8616e	-0.45386833
201	0x3dc9ed02	0.09859659
202	0x3d9aa021	0.075500734
203	0x3ec3ed69	0.38267067
204	0xbe6b0633	-0.22951584
205	0x3e327d81	0.17430688
206	0x3e9ff372	0.31240422
207	0x3db0e4b0	0.08637369
208	0xbbf0e73b	-0.0073517836
209	0xbc5e5c68	-0.013571836
210	0x3dbfb1af	0.09360062
211	0xbe7bdf9d	-0.2459702
212	0x3edbf293	0.42958507
213	0x3f0f3f84	0.5595629
214	0xbd04c990	-0.032418787
215	0xbd2978c6	-0.041374944
216	0x3d7bfba9	0.0615193
217	0xbc6e4416	-0.0145426
218	0x3d433de9	0.047666464
219	0x3e3d8f3a	0.18511668
220	0xbe0b68bc	-0.13614172
221	0xbdfb3dd0	-0.12267649
222	0x3cc0fe80	0.023558855
223	0x3e613528	0.21992934
224	0x3ebc7e49	0.36815098
225	0xbcf099a1	-0.029370131
226	0xbec4a1a1	-0.38404563
227	0x3bc433d0	0.005987622
228	0x3dc6f1eb	0.09714111
229	0xbd2040ba	-0.039124228
230	0x40225fed	2.5371048
231	0x3fa770ac	1.308126
232	0x3f3b7953	0.73232
233	0x3ece5944	0.4030248
234	0xbea54675	-0.32280317
235	0x3f2f83d2	0.68560517
236	0xbee3bea4	-0.44481385
237	0x3ddeb2ef	0.108739726
238	0x3eaaac8c	0.33334768
239	0xbf040ee9	-0.5158525
240	0x3ecd19fe	0.40058893
241	0x3e2f72a9	0.17133583
242	0xbd9c0cd9	-0.07619638
243	0x3d83c622	0.06434275
244	0xbec02e92	-0.3753553
245	0xbf2b9d83	-0.6703722
246	0xbdeb8255	-0.11499468
247	0x3e8f5fb0	0.2800269
248	0xbb65c141	-0.0035057815
249	0x3ee01fc0	0.43774223
250	0x3c1380fe	0.009002922
251	0xbe2ccd0d	-0.16875096
252	0xbe5fd717	-0.21859394
253	0x3d8d0b9b	0.06886979
254	0xbcdae1ba	-0.026718963
255	0xbdc2b28a	-0.0950671

fc1.bias f4 [400]
0	0xbde989b9	-0.11403222
1	0xbe17d82b	-0.14828555
2	0xbe497393	-0.19672994
3	0xbef7b2b7	-0.48378536
4	0xbe1e0c71	-0.15434434
5	0xbf094672	-0.53623116
6	0x3de70302	0.112798706
7	0xbf1c2623	-0.6099569
8	0xbf2326e7	-0.63731235
9	0xbf393498	-0.72345877
10	0xbd857458	-0.065163314
11	0xbf353d9b	-0.7079713
12	0xbf7a9a36	-0.9789156
13	0x3da2c254	0.079472214
14	0xbf48578e	-0.782586
15	0xbf60f088	-0.8786702
16	0xbf5e62f3	-0.86869735
17	0xbf0bfae8	-0.5467973
18	0xbf2af2df	-0.6677684
19	0xbf5b46d3	-0.85654944
20	0xbf0cd123	-0.5500662
21	0xbede500a	-0.4342044
22	0xbf087e10	-0.53317356
23	0xbf17ed88	-0.5934682
24	0xbf1ebc3e	-0.62005985
25	0xbf10a42e	-0.5650052
26	0xbf1b205c	-0.6059625
27	0xbf4875ff	-0.7830505
28	0xbf21a2ab	-0.63138837
29	0xbebb280b	-0.36553988
30	0xbf32d24d	-0.69852144
31	0xbedc4fb5	-0.43029562
32	0xbf5837a5	-0.84459907
33	0xbf13d1af	-0.57741827
34	0xbf64931c	-0.8928697
35	0xbf698b85	-0.91228515
36	0xbdbd8422	-0.09253718
37	0xbe7c3ac0	-0.24631786
38	0xbf2a495d	-0.66518193
39	0xbf45bccc	-0.77241206
40	0xbf178cc7	-0.59199184
41	0xbecb7cae	-0.3974356
42	0xbf685c4f	-0.9076585
43	0xbef53c41	-0.47897533
44	0xbe9aa854	-0.3020655
45	0xbe8f887e	-0.28033823
46	0xbf07f42d	-0.5310696
47	0xbf20a6aa	-0.6275431
48	0xbf32ab52	-0.69792664
49	0xbf29330f	-0.66093534
50	0xbe3bca33	-0.18338852
51	0xbeeefa07	-0.4667513
52	0xbecaaefc	-0.39586627
53	0xbf1068dd	-0.5641001
54	0xbed861e5	-0.42262188
55	0xbe402a5d	-0.1876616
56	0xbebd03a7	-0.3691685
57	0xbf3e11f3	-0.7424614
58	0xbe371853	-0.17880373
59	0xbf2b62dd	-0.6694773
60	0xbf46a35b	-0.7759301
61	0xbf3a90f6	-0.7287744
62	0xbf5ed85d	-0.87048894
63	0xbea910a2	-0.33020502
64	0xbefc49e8	-0.49275136
65	0xbf4ec2c7	-0.80765957
66	0xbededca5	-0.43527713
67	0xbebb3ad2	-0.36568314
68	0xbec34a3e	-0.3814258
69	0xbf58a792	-0.8463069
70	0xbedda642	-0.43290907
71	0xbf46470e	-0.7745217
72	0xbf7e375d	-0.9930323
73	0xbf546a96	-0.8297514
74	0xbeb450df	-0.3521795
75	0xbf1e7ecc	-0.61912227
76	0xbe27a490	-0.1637137
77	0xbf1b4455	-0.6065114
78	0xbf5c592c	-0.86073565
79	0xbecc1172	-0.3985706
80	0xbf3442f9	-0.7041469
81	0xbf56b787	-0.8387379
82	0xbf469e60	-0.7758541
83	0xbe84f664	-0.2596923
84	0xbeb4241d	-0.35183802
85	0xbeb1a524	-0.34696305
86	0xbf7b1dc2	-0.9809228
87	0xbe40812f	-0.1879928
88	0xbe966250	-0.2937188
89	0xbf5b2cee	-0.8561543
90	0xbfa1ec09	-1.2650157
91	0x3b853f18	0.0040663593
92	0xbf305d61	-0.68892485
93	0xbf03c8d7	-0.5147833
94	0xbc04cdb2	-0.008105682
95	0xbf4df3c2	-0.8045007
96	0xbf470d0e	-0.77754295
97	0xbf0b8d4a	-0.54512465
98	0xbeec4878	-0.4614904
99	0xbeb9cc19	-0.36288527
100	0xbf169cdd	-0.58833104
101	0xbf2caf12	-0.67454636
102	0xbf053cbc	-0.520458
103	0xbeef0e3e	-0.46690553
104	0xbf1a890a	-0.60365355
105	0xbeb19dc9	-0.34690693
106	0xbee79b1e	-0.45235533
107	0xbdab34e0	-0.083596945
108	0xbf4af87b	-0.792854
109	0xbef20ac6	-0.47273844
110	0xbee69296	-0.4503371
111	0xbe826eae	-0.25475067
112	0xbeefd5df	-0.46842858
113	0xbe7b7162	-0.24554971
114	0xbf33fb07	-0.7030491
115	0xbec9d36f	-0.39419124
116	0xbe4956ee	-0.19662067
117	0xbee74578	-0.45170188
118	0xbd778651	-0.06043083
119	0xbf2bd833	-0.6712677
120	0xbd99783d	-0.07493637
121	0xbe8811f2	-0.2657619
122	0xbf26d4f6	-0.651687
123	0xbf46ed20	-0.77705574
124	0xbf0f11d7	-0.55886596
125	0xbf3085f3	-0.6895439
126	0xbee0673f	-0.4382877
127	0xbf1947fe	-0.59875476
128	0xbf0eca50	-0.55777454
129	0xbf31e5ea	-0.69491446
130	0xbe9a42f2	-0.301292
131	0xbeca5014	-0.3951422
132	0x3e038e75	0.12847312
133	0xbf6dc0ba	-0.928722
134	0xbe943085	-0.28943267
135	0xbed17dab	-0.4091619
136	0xbec8d6fc	-0.3922652
137	0xbecbac1f	-0.39779755
138	0xbf850839	-1.0393134
139	0xbf74e288	-0.9565816
140	0xbea6bd75	-0.3256642
141	0xbf0aeb2c	-0.54265094
142	0xbef13c66	-0.47116393
143	0xbe44d73f	-0.19222735
144	0xbf024904	-0.50892663
145	0xbef2b93f	-0.47406957
146	0xbf352710	-0.7076273
147	0xbef62008	-0.48071313
148	0xbeb27191	-0.3485227
149	0xbeaf004b	-0.3417991
150	0xbe8ccc6b	-0.2749971
151	0xbe8b727a	-0.27235776
152	0xbe66548f	-0.22493194
153	0xbf1ddcbd	-0.61664945
154	0xbec9325e	-0.3929624
155	0xbf3c0591	-0.73445994
156	0xbf5b722e	-0.857211
157	0xbf4b10aa	-0.793223
158	0xbf3f75f0	-0.74789333
159	0xbe3b6061	-0.18298484
160	0xbeb55963	-0.3541976
161	0xbf3c55c2	-0.73568356
162	0x3d62292a	0.05521504
163	0xbe885d43	-0.26633653
164	0xbdb27376	-0.08713429
165	0xbf9957cb	-1.1979917
166	0xbf39713a	-0.72438395
167	0xbe6d495a	-0.23172513
168	0x3e5b1c69	0.21397556
169	0xbe58833f	-0.21143816
170	0xbf39436b	-0.72368497
171	0xbf2c9947	-0.6742138
172	0xbf4a09af	-0.78921026
173	0xbeaacef1	-0.3336101
174	0xbf9bcc5e	-1.2171743
175	0xbf4878bd	-0.7830923
176	0xbf5a0939	-0.8517032
177	0xbf93c0b7	-1.1543187
178	0xbf0d0788	-0.55089617
179	0xbf1b962a	-0.6077601
180	0x3d6cfcbb	0.05785821
181	0xbeb76b34	-0.35823977
182	0xbf097580	-0.53694916
183	0xbf56e969	-0.83949906
184	0x3ce77b2e	0.028256979
185	0xbeb6d2b1	-0.3570762
186	0xbf33e2f9	-0.7026821
187	0xbf0acb55	-0.5421651
188	0x3d2a96d1	0.041647736
189	0xbe96729e	-0.2938432
190	0xbed3b228	-0.4134686
191	0xbf470f98	-0.7775817
192	0xbecdeba4	-0.40218842
193	0xbf1f0748	-0.62120485
194	0xbf284e65	-0.6574462
195	0xbed022e4	-0.4065162
196	0xbf6e04d1	-0.929761
197	0xbf610f77	-0.8791422
198	0xbea37a87	-0.31929418
199	0x3de243ca	0.11048086
200	0xbf2308c9	-0.6368528
201	0xbf180e08	-0.5939641
202	0xbefef4ea	-0.4979623
203	0xbeeb8437	-0.4599931
204	0xbf1c7777	-0.6111979
205	0xbf4b5fc3	-0.79442996
206	0xbed315a6	-0.41227454
207	0xbf982770	-1.1887035
208	0xbeef40b5	-0.46729055
209	0xbf0f2172	-0.5591041
210	0xbeea30b2	-0.45740277
211	0xbea25186	-0.31702822
212	0xbf750773	-0.9571449
213	0xbf51c8c7	-0.81946987
214	0xbf7fc6ca	-0.99912703
215	0xbd8eca24	-0.06972149
216	0xbeb7315b	-0.35779843
217	0xbf403cda	-0.7509285
218	0xbeaf8256	-0.34279126
219	0xbf5a1e44	-0.8520243
220	0xbf2eeba8	-0.6832833
221	0xbe9ae71b	-0.30254444
222	0xbe678f22	-0.22613195
223	0xbf220562	-0.63289464
224	0xbf36df57	-0.7143454
225	0xbec43ddf	-0.38328454
226	0xbeac7345	-0.33681694
227	0xbea404f0	-0.32035017
228	0xbf7fbc50	-0.9989672
229	0xbf617034	-0.88061833
230	0xbee9200c	-0.45532262
231	0xbf2269d2	-0.6344272
232	0xbee8ec3b	-0.4549273
233	0xbea2a231	-0.31764367
234	0xbf1f6fbf	-0.62279886
235	0xbf173edc	-0.5908029
236	0x3dc06d45	0.093958415
237	0xbeb62a1c	-0.35579002
238	0xbf3abe5a	-0.72946703
239	0xbead5c17	-0.3385932
240	0xbf06f075	-0.5271066
241	0xbf748539	-0.9551578
242	0xbf2aaaa5	-0.6666663
243	0xbf0cd51d	-0.55012685
244	0xbe0c2371	-0.13685395
245	0xbec6f5ae	-0.38859314
246	0xbee9eeb5	-0.45689932
247	0xbf31ad61	-0.6940518
248	0xbd957c1f	-0.07299065
249	0xbee71504	-0.4513322
250	0xbe2904e4	-0.16505772
251	0xbf19d9a5	-0.60097724
252	0xbf21501b	-0.63012856
253	0xbf2690bd	-0.65064603
254	0xbeb0bc62	-0.34518725
255	0xbe331c74	-0.17491323

fc2.weight f4 [300, 400]
0	0xbe4fd567	-0.2029625
1	0xbf1403eb	-0.5781848
2	0xbfc4a93a	-1.5364144
3	0xbf4a627c	-0.79056525
4	0x3ee84e6b	0.45372328
5	0x3e910623	0.28324994
6	0x3ca65ae8	0.02030702
7	0xbeb5aba7	-0.35482523
8	0xbe94fcbc	-0.2909907
9	0xbe19d595	-0.15022881
10	0xbea60895	-0.32428423
11	0xbd49281b	-0.049110513
12	0xbd7ebe9f	-0.06219351
13	0x3dbc7a53	0.09203019
14	0xbe9a3b8f	-0.30123565
15	0x3e726085	0.23669632
16	0x3ec4c674	0.38432658
17	0x3cc2f4b2	0.02379832
18	0xbd83b71e	-0.06431411
19	0x3eb3d694	0.35124648
20	0x3d89374f	0.067000024
21	0xbecc6376	-0.39919633
22	0x3bfb4c77	0.0076690274
23	0x3d408732	0.047003932
24	0x3e66d2c5	0.2254134
25	0xbf3dfef2	-0.7421714
26	0xbf584717	-0.84483474
27	0x3c4717e7	0.012151695
28	0xbde2a924	-0.11067417
29	0x3e466161	0.19373085
30	0x3edc34f4	0.4300915
31	0xbe026bf4	-0.12736493
32	0x3dfa7221	0.122287996
33	0xbe988fda	-0.2979725
34	0xbf59f29d	-0.85135823
35	0x3f48a42f	0.78375524
36	0xbb97ec4a	-0.004636322
37	0x3ed61ce9	0.41818932
38	0xbdfa391e	-0.122179255
39	0x3e081886	0.13290605
40	0x3e19fe0d	0.15038319
41	0xbf47823a	-0.77933085
42	0x3f494d6d	0.7863377
43	0xbe162073	-0.14660816
44	0xbf9abc49	-1.208871
45	0xbfe7015d	-1.8047291
46	0xbe3aedcf	-0.1825478
47	0x3e92de5c	0.28685272
48	0x3e83465d	0.2563962
49	0x3cd4bcc2	0.025968913
50	0x3e4582e9	0.1928822
51	0xbe9a2abc	-0.3011073
52	0x3e29877a	0.16555586
53	0x3ddec7db	0.10877963
54	0xbf5be1e3	-0.8589155
55	0xbda1fc94	-0.079095036
56	0xbdf44103	-0.119264625
57	0xbda77c96	-0.0817806
58	0xbf38c9e1	-0.7218304
59	0x3e6c25fa	0.23061362
60	0xbd868761	-0.0656879
61	0x3e3199ac	0.17343777
62	0xbd5b75ea	-0.05357925
63	0xbf04362f	-0.5164518
64	0xbebef53a	-0.37296468
65	0x3f2792c2	0.6545831
66	0xbeb9d4f3	-0.3629528
67	0xbf0c0a02	-0.5470277
68	0x3d284504	0.041081443
69	0xbd7dc23e	-0.061952822
70	0x3e17a846	0.14810285
71	0xbe989188	-0.29798532
72	0x3eccfff2	0.4003902
73	0xbf384253	-0.719762
74	0xbdd66523	-0.10468509
75	0x3ea18357	0.31545517
76	0x3d163caf	0.036678966
77	0x3edf926e	0.43666404
78	0x3de7588f	0.11296188
79	0xbeb26574	-0.34843028
80	0x3f4a97f2	0.791381
81	0xbed77d82	-0.42087942
82	0xbec33e2d	-0.38133374
83	0xbf771c8a	-0.9652792
84	0x3ce221c4	0.027603991
85	0x3f3364ad	0.70075494
86	0x3ef242fb	0.47316727
87	0xbc7ff2dd	-0.015621868
88	0xbe832c6c	-0.2561983
89	0xbdf9507f	-0.121735565
90	0x3d40fead	0.047117878
91	0xbf5d818e	-0.8652581
92	0xbdaad8f5	-0.083421625
93	0x3ec56ae4	0.38558114
94	0xbf7f1288	-0.9963765
95	0xbeaea2a1	-0.3410845
96	0xbeb8584d	-0.36004868
97	0x3d8da1ab	0.06915601
98	0x3e063085	0.13104446
99	0xbed1d629	-0.40983704
100	0xbe1b4411	-0.15162684
101	0xbdd27da8	-0.10277873
102	0xbf72372c	-0.94615436
103	0xbdc31096	-0.09524648
104	0xbf3e968b	-0.7444846
105	0xbdbb629b	-0.09149667
106	0xbe72cfb3	-0.23712043
107	0xbe550e3c	-0.20806211
108	0x3d6d8fb1	0.057998363
109	0x3cecb4c0	0.028894782
110	0x3e2aece3	0.16691928
111	0x3e52e6ab	0.20595805
112	0xbdcde508	-0.1005345
113	0xbee41f25	-0.4455501
114	0x3eaf35b2	0.34220654
115	0xbe52ddff	-0.20592497
116	0x3e627fa5	0.22119005
117	0x3eb60350	0.35549402
118	0xbf41e078	-0.7573314
119	0x3e56d857	0.20980965
120	0xbf425437	-0.7590975
121	0xbf0030f2	-0.50074685
122	0xbee10fe1	-0.43957427
123	0x3efc71c1	0.49305537
124	0x3eca65c3	0.39530763
125	0x3ddad131	0.10684431
126	0x3dc145ca	0.09437139
127	0x3ed32d44	0.41245472
128	0x3c593eec	0.013259631
129	0x3e9e5e66	0.30931395
130	0xbf2c0b7a	-0.6720501
131	0x3e6f6fe4	0.23382527
132	0x3dda9243	0.106724285
133	0xbe582c0b	-0.21110551
134	0xbf380e41	-0.7189675
135	0x3eccd484	0.40005887
136	0xbedc6ee2	-0.43053347
137	0x3e0d7570	0.1381433
138	0x3e24dbb2	0.16099432
139	0x3ea9f22d	0.33192578
140	0xbf4660e3	-0.7749159
141	0xbdaf5f2a	-0.08563073
142	0x3ea92220	0.33033848
143	0xbffe9714	-1.9889855
144	0x3e25ebff	0.16203307
145	0xbe82cc67	-0.25546572
146	0x3cf5c7bb	0.030002465
147	0x3eee3efe	0.46532434
148	0xbe0bd691	-0.1365607
149	0xbe634518	-0.22194326
150	0xbebeff7d	-0.37304297
151	0xbda99508	-0.082803786
152	0xbee3b666	-0.44475096
153	0xbd101eb3	-0.035185527
154	0x3d431d13	0.04763515
155	0x3f4b8ded	0.79513437
156	0xbe1bdb2c	-0.15220326
157	0x3e24e72a	0.16103807
158	0xbf6b7799	-0.91979367
159	0xbedbee75	-0.42955366
160	0xbf136df7	-0.5758967
161	0xbf160ab0	-0.5861006
162	0xbf96f26a	-1.1792729
163	0x3eefc834	0.4683243
164	0xbe1535a0	-0.14571238
165	0xbea135fb	-0.31486496
166	0x3f4b758e	0.7947625
167	0xbf284db0	-0.6574354
168	0xbefe743b	-0.49698052
169	0xbea296fe	-0.31755823
170	0xbee27e28	-0.44236875
171	0x3e73c487	0.23805438
172	0x3f16ad86	0.58858526
173	0xbf0aa7de	-0.54162395
174	0xbdb243e4	-0.08704355
175	0x3f18a58d	0.5962761
176	0x3e2b83ba	0.16749468
177	0xbe4128e3	-0.18863253
178	0x3ea72ff1	0.32653764
179	0xbc2ed291	-0.01067032
180	0xbf66940a	-0.9006964
181	0xbf9bc75a	-1.2170212
182	0x3c952e3c	0.018210523
183	0x3e8e51c6	0.27796763
184	0xbe9eb598	-0.3099792
185	0x3d75cf6d	0.06001227
186	0x3eab7c16	0.33493108
187	0x3dc8ef16	0.09811227
188	0xbe92ad85	-0.2864801
189	0x3e0f7361	0.14008857
190	0xbf05931b	-0.5217759
191	0x3de0e36c	0.10980877
192	0xbc1084fd	-0.008820769
193	0xbe11738d	-0.14204235
194	0xbd5f9bbc	-0.05459188
195	0xbda4c3f4	-0.080451876
196	0x3ee80fbf	0.45324513
197	0x3f1e648c	0.6187217
198	0xbda46c5e	-0.08028482
199	0xbd1cdbea	-0.038295664
200	0x3d99130f	0.07474338
201	0xbea467c9	-0.32110432
202	0xbe85a5a9	-0.2610295
203	0xbec03527	-0.37540552
204	0xbdd732bb	-0.10507723
205	0xbe02fdde	-0.12792155
206	0x3ec6e44f	0.3884606
207	0x3ec1b85b	0.37835965
208	0x3e2ea190	0.17053819
209	0xbecfcc07	-0.40585348
210	0x3e6d8302	0.23194507
211	0x3e64075a	0.2226843
212	0xb995e180	-0.00028587505
213	0x3e2a4f8b	0.16631906
214	0x3e7c9197	0.24664913
215	0xbf0bbd61	-0.54585844
216	0xbf2154bd	-0.63019925
217	0xbeff4634	-0.49858248
218	0xbf692d2a	-0.9108454
219	0xbdec361a	-0.115337566
220	0x3d6278fc	0.05529116
221	0x3f504303	0.8135225
222	0x3e984fb5	0.29748312
223	0xbd03abc1	-0.03214622
224	0xbf44a25c	-0.7681024
225	0x3e3265fc	0.17421716
226	0xbf1779f4	-0.5917046
227	0xbda206d4	-0.079114586
228	0x3e3aeea7	0.18255101
229	0x3db29156	0.08719127
230	0xbf777ba4	-0.96673036
231	0x3f0d04df	0.5508556
232	0x3e2c9edf	0.1685748
233	0xbd53398b	-0.05156855
234	0xbed44084	-0.41455472
235	0x3edc0b53	0.4297739
236	0xbdaef067	-0.08541947
237	0x3e1c855c	0.15285248
238	0x3eb2b480	0.34903336
239	0x3edc2e5c	0.4300412
240	0x3f1ec897	0.62024826
241	0x3f02ed67	0.511435
242	0x3ec57a41	0.38569835
243	0x3f3e3303	0.7429659
244	0xbeebc2a4	-0.46046937
245	0x3d43780c	0.047721907
246	0x3ed6a957	0.4192607
247	0x3e88d478	0.267246
248	0x3e080b0f	0.13285469
249	0x3f21ffad	0.63280755
250	0x3e9ea7d0	0.30987406
251	0x3e9d50ee	0.30725807
252	0x3d421fab	0.047393482
253	0xbeedffed	-0.46484318
254	0xbe9af45d	-0.3026456
255	0xbd451dc9	-0.04812411

fc2.bias f4 [300]
0	0xbea234b6	-0.3168084
1	0xbeb15ad6	-0.34639615
2	0xbda19f89	-0.07891757
3	0xbd700a3a	-0.058603503
4	0xbf681d85	-0.90670043
5	0x3d9aa4ea	0.07550986
6	0xbdb8f163	-0.09030416
7	0xbdf99b49	-0.121878214
8	0xbd7130f1	-0.058884565
9	0xbea87c5e	-0.32907385
10	0xbd05a2e3	-0.032626044
11	0xbd93486b	-0.07191547
12	0x3e2bed97	0.16789852
13	0xbf0966d1	-0.5367251
14	0xbdcce946	-0.10005431
15	0xbd5c24d0	-0.053746045
16	0xbef36e42	-0.47545058
17	0xbea8affd	-0.32946768
18	0xbe92cf1c	-0.28673637
19	0xbd9b0754	-0.07569757
20	0xbf4879a6	-0.7831062
21	0xbec4b2ab	-0.38417563
22	0xbeae1555	-0.3400065
23	0xbd030aa9	-0.03199259
24	0xbe05bcf9	-0.13060369
25	0xbd3cc67e	-0.046087734
26	0xbd36866a	-0.04456178
27	0xbe257efd	-0.16161723
28	0xbefe60bc	-0.49683177
29	0x3ccf9973	0.025341725
30	0xbcc453c8	-0.023965731
31	0xbe19ff12	-0.15038708
32	0xbd7590ae	-0.05995243
33	0xbea54ba7	-0.3228428
34	0xbdb647d6	-0.0890042
35	0xbd84565e	-0.06461786
36	0xbe720c74	-0.23637563
37	0xbdcc683b	-0.09980818
38	0xbf2794a1	-0.65461165
39	0xbe838e06	-0.25694293
40	0xbe103fb2	-0.14086798
41	0xbd9d4931	-0.07679976
42	0xbe9c2d3f	-0.3050327
43	0x3e94385a	0.28949243
44	0xbd9debfd	-0.07711027
45	0xbe520050	-0.20507932
46	0xbed79c8c	-0.42111623
47	0xbcff104d	-0.031135703
48	0x3db156ef	0.086591594
49	0xbe106ed3	-0.14104776
50	0x3e9b5d69	0.30344704
51	0xbe6ba888	-0.23013508
52	0x3daac3e8	0.083381474
53	0xbef04051	-0.4692407
54	0xbd91ad33	-0.07113113
55	0xbd3f55ef	-0.046712812
56	0xbe1cd85d	-0.15316911
57	0xbec1901b	-0.37805256
58	0xbec52f34	-0.38512576
59	0xbf2bbd76	-0.6708597
60	0x3dc4c48e	0.09607802
61	0xbf516ed6	-0.8180975
62	0xbd5639b3	-0.05230112
63	0xbf056056	-0.5210012
64	0x3d7a9328	0.061175495
65	0xbe9bc1cc	-0.30421293
66	0x3e2a117d	0.16608234
67	0xbd21822a	-0.039430775
68	0xbd191d01	-0.037381176
69	0x3d3b69c2	0.045755155
70	0xbd58f295	-0.05296572
71	0xbe1448b3	-0.14480858
72	0x3e53131c	0.20612758
73	0xbd824841	-0.063614376
74	0xbd045b85	-0.032313842
75	0xbb8b90aa	-0.0042591887
76	0xbda7ae03	-0.08187487
77	0xbed90055	-0.42383066
78	0xbea589ba	-0.3233164
79	0xbed99184	-0.42493832
80	0xbe9d748d	-0.30752984
81	0xbd902f4f	-0.070402734
82	0xbdf6e9e5	-0.120563306
83	0xbe7e376e	-0.24825832
84	0xbd849d01	-0.064752586
85	0xbf441750	-0.7659807
86	0xbe098598	-0.13429868
87	0xbf0bc787	-0.5460133
88	0x3e11e086	0.14245805
89	0xbec8920a	-0.3917392
90	0xbe775b23	-0.2415586
91	0xbd6b83b3	-0.057498645
92	0xbdede547	-0.11615997
93	0xbf245280	-0.64188385
94	0xbf57014a	-0.8398634
95	0xbc5ba8c8	-0.01340694
96	0x3e866464	0.26248467
97	0xbddfb453	-0.10923066
98	0x3e7c4a64	0.24637753
99	0xbe8e7a23	-0.27827558
100	0xbefeef59	-0.49791983
101	0xbc741434	-0.014897395
102	0xbc4dab35	-0.012553026
103	0x3e8cb0f7	0.27478763
104	0xbece2818	-0.40264964
105	0xbdc7318a	-0.09726246
106	0xbe0ed8a1	-0.13949825
107	0xbebf0814	-0.3731085
108	0xbe8c5a96	-0.27412862
109	0xbdbf8881	-0.09352208
110	0xbe82f3f5	-0.2557675
111	0xbebc2a78	-0.3675115
112	0xbddd098e	-0.10792838
113	0xbebc30b7	-0.36755916
114	0x3ed7a624	0.42118943
115	0xbef1d0ac	-0.47229517
116	0xbf87af7d	-1.060043
117	0xbe741000	-0.23834229
118	0xbec5cd85	-0.3863336
119	0xbdd91515	-0.10599724
120	0xbe82ae84	-0.2552377
121	0xbe85a923	-0.26105604
122	0xbebf7c94	-0.37399733
123	0xbe1fa2e5	-0.15589483
124	0x3b9a8775	0.004715855
125	0xbe93ecb6	-0.28891534
126	0x3c43e7b9	0.011957102
127	0xbe627625	-0.22115381
128	0x3d94c8cb	0.07264861
129	0xbe868b99	-0.2627838
130	0x3df4898c	0.119402975
131	0xbd056e9c	-0.03257619
132	0xbebf2af6	-0.37337464
133	0xbe7243fd	-0.23658748
134	0xbdb69f0b	-0.08917054
135	0xbe51d0f1	-0.20489861
136	0xbd95ec51	-0.073204644
137	0xbcf30d14	-0.029669322
138	0xbf0c41f1	-0.5478812
139	0xbf0ac83b	-0.5421178
140	0xbf02eabd	-0.5113943
141	0xbe91aa20	-0.28450108
142	0xbe71e9ac	-0.23624295
143	0xbd828ac9	-0.063741274
144	0xbda5d49d	-0.080971934
145	0xbe2992fa	-0.16559973
146	0xbf7e848f	-0.9942102
147	0xbef6eb17	-0.48226234
148	0xbdaf3f1e	-0.085569605
149	0x3db8f3cb	0.09030875
150	0xbf1bdc69	-0.60883194
151	0x3e45d267	0.19318543
152	0xbea8fed0	-0.33006907
153	0x3e00ae21	0.12566425
154	0x3e0b6ed2	0.13616493
155	0xbe8df8bc	-0.27728832
156	0xbedf086c	-0.43561113
157	0xbf3065d1	-0.6890536
158	0xbd71d863	-0.059044253
159	0xbdab499c	-0.08363649
160	0xbf057025	-0.52124244
161	0xbf10f51a	-0.56623995
162	0xbf17b563	-0.5926115
163	0x3c49b022	0.01231006
164	0xbe765a48	-0.24057877
165	0xbe048122	-0.12939885
166	0xbe7cad96	-0.24675593
167	0xbed41e45	-0.41429344
168	0x3dbcb31c	0.0921385
169	0x3dd67298	0.10471076
170	0xbf097ea9	-0.53708893
171	0xbd7d4570	-0.0618338
172	0xbe3f0a0b	-0.18656175
173	0xbed5a09e	-0.41724104
174	0xbc522246	-0.012825554
175	0x3ec4a4b8	0.3840692
176	0xbf058c78	-0.52167463
177	0xbd80c4e1	-0.06287552
178	0x3e1d8c65	0.15385588
179	0xbe4475e8	-0.19185603
180	0xbf018067	-0.5058655
181	0x3e3b8403	0.18312077
182	0xbd001128	-0.03126636
183	0xbee4f390	-0.44717073
184	0xbe49db98	-0.19712675
185	0xbdb46969	-0.08809168
186	0xbd288fb5	-0.041152675
187	0xbe36a0ba	-0.1783475
188	0x3d474cdb	0.04865728
189	0xbf050a86	-0.5196918
190	0xbf3fc424	-0.7490866
191	0xbe0df2c5	-0.1386214
192	0xbd51031f	-0.051028367
193	0xbf20ebe3	-0.62859935
194	0xbd807aaf	-0.062734
195	0xbf233604	-0.63754296
196	0xbe274e31	-0.16338421
197	0xbef4e5bc	-0.47831523
198	0xbe19bffd	-0.15014644
199	0xbd95b540	-0.07309961
200	0xbd87feee	-0.06640421
201	0xbee3ad85	-0.44468322
202	0x3e5807cf	0.21096729
203	0xbd0dc6a0	-0.03461325
204	0xbe73d440	-0.23811436
205	0xbc3c3ba1	-0.011488826
206	0xbdc2c8ca	-0.09510954
207	0xbe01f930	-0.12692714
208	0xbeb43cee	-0.35202736
209	0xbeeac1a3	-0.45850858
210	0xbd82871f	-0.063734286
211	0xbcb33980	-0.021878004
212	0xbeae52ab	-0.34047446
213	0x3b66c820	0.0035214499
214	0xbca70d30	-0.02039203
215	0xbe38eea2	-0.18059781
216	0xbee17fe3	-0.44042882
217	0xbe47af0e	-0.19500372
218	0xbec4fc0d	-0.3847355
219	0xbebc00f3	-0.36719474
220	0x3ea13408	0.3148501
221	0xbdaacb6b	-0.0833958
222	0xbd79c1a5	-0.06097569
223	0xbe67e340	-0.22645283
224	0x3deb6d50	0.11495459
225	0x3e552aac	0.2081706
226	0xbce551b8	-0.027993068
227	0xbd2355a7	-0.039876606
228	0xbeaefd40	-0.3417759
229	0x3eb4510b	0.3521808
230	0x3e10246b	0.14076392
231	0xbf2bc14f	-0.6709184
232	0x3c519e8c	0.012794148
233	0xbd7dcaef	-0.06196111
234	0xbf895a19	-1.0730621
235	0xbafd6b49	-0.0019334342
236	0xbd7f592b	-0.062340897
237	0xbe881225	-0.26576343
238	0xbdd257c5	-0.10270647
239	0xbe669a13	-0.22519712
240	0xbefdd7ed	-0.495788
241	0xbeac2027	-0.3361828
242	0xbeb4710e	-0.35242504
243	0x3dc0d10e	0.09414874
244	0xbe8604b6	-0.2617547
245	0xbe054be6	-0.13017234
246	0xbe50f5c7	-0.20406257
247	0x3db0b433	0.0862812
248	0xbd72bcaf	-0.059261974
249	0xbea44dc4	-0.3209058
250	0xbdd39932	-0.10331954
251	0xbe2fcefb	-0.171688
252	0xbe4d87a0	-0.20071268
253	0xbeb792f4	-0.35854304
254	0x3e8f7c22	0.28024393
255	0xbef53ab5	-0.47896352

fc3.weight f4 [4, 300]
0	0x3e7f8309	0.2495233
1	0xbdbb1d31	-0.09136427
2	0x3f0846fd	0.5323332
3	0xbcbae41d	-0.022813851
4	0xbf73ff14	-0.95311093
5	0x3f222aed	0.6334675
6	0x3f4e458a	0.8057486
7	0xbe5d3312	-0.21601513
8	0xbf0ec3f7	-0.5576777
9	0xbeff6435	-0.4988114
10	0xbce0e2cb	-0.027451893
11	0xbf080fdc	-0.531492
12	0xbf678a43	-0.90445346
13	0x3fb4d535	1.4127566
14	0xbcf46957	-0.029835386
15	0x3f10df92	0.5659114
16	0xbf25de2b	-0.64792126
17	0x3ef95b78	0.48702598
18	0x3f10b4f4	0.5652611
19	0xbeeae06f	-0.45874354
20	0xbef9a98c	-0.48762167
21	0x3df59ef0	0.119932055
22	0x3fb5db44	1.420754
23	0x3e0633df	0.13105725
24	0xbdb9b66e	-0.09067999
25	0x3de5780a	0.11204536
26	0xbcd8648e	-0.026415136
27	0xbf9ac3d7	-1.2091016
28	0x3f3be736	0.73399675
29	0x3f70a513	0.94001883
30	0xbfa3b40f	-1.2789325
31	0x3fa915fb	1.3209833
32	0x3f1368ea	0.5758196
33	0xbfc61a26	-1.547673
34	0xbf327b05	-0.6971896
35	0xbd1b6f45	-0.03794791
36	0xbf5fbc28	-0.8739648
37	0xbfe025c0	-1.751152
38	0xbed01f4b	-0.40648875
39	0xbec6bacd	-0.38814393
40	0xbd22e366	-0.039767645
41	0x3e355431	0.17707898
42	0xbcfd22d7	-0.030900402
43	0xbfacb33f	-1.3492202
44	0x3c9f7f8e	0.019470003
45	0x3cb7dcbd	0.022444123
46	0x3f082667	0.531836
47	0xbf3d7819	-0.7401138
48	0xc000c852	-2.0122266
49	0xbdb46b37	-0.08809512
50	0xbfa52ea9	-1.2904865
51	0x3dc80fcf	0.0976864
52	0xbeed8ce9	-0.46396568
53	0x3ea4023f	0.32032964
54	0x3f1d68a4	0.61487794
55	0x3dbc4e41	0.09194613
56	0xbf2b836a	-0.66997397
57	0x3d596c92	0.053082056
58	0x3fda8c17	1.7074002
59	0xbbd405f0	-0.0064704344
60	0x3e579b59	0.21055354
61	0xbf056a16	-0.52115
62	0xbc922321	-0.017839016
63	0x3f04afb3	0.51830596
64	0x3f07309a	0.52808535
65	0xbf71a280	-0.9438858
66	0xbf433e31	-0.7626677
67	0xbd04ce1d	-0.032423127
68	0x3fa94607	1.3224496
69	0xbfdcc714	-1.7248254
70	0x3ef1c186	0.4721796
71	0xc015d7ad	-2.3412888
72	0xbf606cdc	-0.87666106
73	0x3b19f37d	0.0023491078
74	0xbb89cc6f	-0.0042052786
75	0x3e0363d9	0.12831058
76	0xbf553094	-0.8327725
77	0x3f2d0fa6	0.67602
78	0xbf23e641	-0.64023215
79	0xbf1dc33d	-0.61626035
80	0x3eb1b705	0.34709945
81	0xbcaf5ca0	-0.021406472
82	0x3f077879	0.529182
83	0x3f28da02	0.65957654
84	0xbd0bb185	-0.034104843
85	0xbe947b24	-0.290002
86	0xbf9652e5	-1.1744047
87	0x3e995133	0.29944763
88	0x3fdf8074	1.7461076
89	0x3ebee1b7	0.37281582
90	0xbfa1273d	-1.25901
91	0xbdc90a88	-0.09816462
92	0x4004078a	2.0629601
93	0x3f6ac295	0.9170316
94	0xbfad17a2	-1.3522837
95	0xbf9ba1ad	-1.2158715
96	0xbf5e8449	-0.869206
97	0xbd9b8760	-0.0759418
98	0xbce7a7f7	-0.028278334
99	0x3e485047	0.19561873
100	0x3fb3f272	1.4058363
101	0xbf298520	-0.6621876
102	0x3babaa29	0.0052387905
103	0x402efbaa	2.7341104
104	0xbf25fb9d	-0.64837056
105	0xbe1ab0a3	-0.15106444
106	0xbeeedcd0	-0.46652842
107	0xbe13ad62	-0.14421609
108	0xbe6b3f27	-0.2297331
109	0xbcbdc4f4	-0.023165204
110	0xbf7863d2	-0.97027314
111	0x3f0a1c5c	0.5394952
112	0xbc8dfaee	-0.017331567
113	0xbf8f2c5d	-1.1185414
114	0x3fc12b75	1.5091387
115	0x3e757005	0.23968513
116	0x3f0dc9b8	0.55385923
117	0x3f3cb7ea	0.7371813
118	0x3d9d5735	0.07682649
119	0x3ee38fb7	0.44445583
120	0x3f2aa0cd	0.6665161
121	0x3f08f579	0.5349956
122	0x3ea4f15a	0.32215387
123	0xbe8668e2	-0.26251894
124	0x3d50cf57	0.050978985
125	0x3f79f0ee	0.97633255
126	0x3e62fb2b	0.22166125
127	0x3ea066b5	0.3132836
128	0xbf9acc97	-1.2093686
129	0x3fd3a046	1.6533287
130	0x3d413ab5	0.047175128
131	0xbd21b0d4	-0.039475277
132	0xc0198186	-2.3985305
133	0xbe239edf	-0.15978573
134	0xbf8ffe6a	-1.1249516
135	0x3f9817b1	1.188223
136	0x3d15dcec	0.03658764
137	0xbcd21ffb	-0.025650015
138	0x3ed821de	0.4221334
139	0x3f0a980e	0.5413827
140	0x3dbdc342	0.09265758
141	0x3f103ed9	0.563459
142	0xbf15643a	-0.5835606
143	0xbcc9d94e	-0.024639752
144	0xbf4ec41a	-0.8076798
145	0x3e6fe9b4	0.23428994
146	0x3e7e27ef	0.24819921
147	0x3f61644c	0.88043666
148	0xbcc93d23	-0.024565285
149	0xbf2c906d	-0.67407876
150	0xbe72e5e2	-0.23720506
151	0xbed96180	-0.424572
152	0x3fc2c2c5	1.5215689
153	0xbf48cb56	-0.78435266
154	0xbffd1bc2	-1.9774096
155	0x3f606fbd	0.876705
156	0x3f8acfd1	1.084467
157	0x3e15a26b	0.14612739
158	0xbc1d7bc6	-0.009612029
159	0xbccf398d	-0.025295997
160	0x3eeff6cf	0.46867988
161	0x3ef2eaa0	0.4744463
162	0x3f17a5a6	0.59237134
163	0x3ff975a8	1.9489031
164	0xbf810aef	-1.0081462
165	0xbd9a4e7c	-0.07534501
166	0x3f19ec4b	0.6012618
167	0x3db48c06	0.0881577
168	0x3fe46fb2	1.7846587
169	0x3e7ddbf2	0.24790934
170	0x3f864bc1	1.0491868
171	0xbfe34e01	-1.775818
172	0x3e8ca242	0.27467543
173	0x3f4ed94c	0.8080032
174	0xbf6a21a1	-0.91457564
175	0x402bc46c	2.6838636
176	0x3e8b11bd	0.2716197
177	0xbebfab04	-0.37435162
178	0x3f108741	0.5645638
179	0xbcdf994f	-0.027294783
180	0xbf322d44	-0.6960032
181	0xbe80c58a	-0.2515071
182	0xbe728b9e	-0.23686072
183	0xbdfb5cfe	-0.12273596
184	0x3f3a71e9	0.72830063
185	0x3f877176	1.05815
186	0xbdab49cf	-0.08363687
187	0xbcf90e5c	-0.030402355
188	0xbe57a417	-0.21058689
189	0x3ed423bf	0.41433522
190	0xbf902685	-1.1261755
191	0xbf8c35b4	-1.0953889
192	0xbc801efe	-0.015639778
193	0x3e40ebfd	0.18840022
194	0xbcd87421	-0.026422562
195	0x3eaaea9e	0.33382124
196	0x3d634c6b	0.0554928
197	0xc03e15a0	-2.97007
198	0xbebed65b	-0.37272915
199	0xbb7e6628	-0.0038818214
200	0xbc7a1ad5	-0.015265186
201	0xbefdb96b	-0.49555525
202	0x3edfd90d	0.43720284
203	0xbf521065	-0.82056266
204	0x3ea39334	0.31948245
205	0x3f009b31	0.50236803
206	0xbe3cce5e	-0.18438098
207	0xbe653052	-0.22381714
208	0xbf4c4fc9	-0.7980924
209	0x3f674ede	0.90354717
210	0xbd951d35	-0.072809614
211	0xc00f7f06	-2.242128
212	0x3d74cb4b	0.059764188
213	0x3e731564	0.23738629
214	0xbf80d9cd	-1.0066468
215	0xbebb2bec	-0.36556947
216	0xbddb4307	-0.10706144
217	0xbd34adcd	-0.04411106
218	0xbe4ba0dc	-0.19885582
219	0x3ecc0be1	0.39852813
220	0xc0144117	-2.3164728
221	0x3d041128	0.032242924
222	0xbf4826c9	-0.7818418
223	0xbf752b85	-0.9576953
224	0xbefce509	-0.4939349
225	0x3f6c0911	0.92201334
226	0xbfacbb0d	-1.3494583
227	0xbf336d7d	-0.7008894
228	0x3f10533c	0.56377006
229	0x3f0225ae	0.50838745
230	0x3eac1760	0.33611584
231	0xbfe078a4	-1.7536817
232	0x3f5d5fd8	0.8647437
233	0xbc1e938e	-0.0096787345
234	0x3ffe4358	1.9864302
235	0xbd431e12	-0.0476361
236	0x3e6bb959	0.23019923
237	0x3f09eb93	0.5387508
238	0xbd529628	-0.05141273
239	0xbed9c52e	-0.4253325
240	0x4013d2eb	2.3097484
241	0xbe9d10ab	-0.3067678
242	0x3ea52805	0.32257095
243	0xbf7b578f	-0.9818048
244	0xbf5684f5	-0.83796626
245	0xbeb34a9f	-0.3501787
246	0x3f7bae7e	0.9831313
247	0xbf5e0916	-0.86732614
248	0xbc87adfa	-0.01656245
249	0xbdf9862d	-0.12183795
250	0x3f2de773	0.6793129
251	0x3e869b9d	0.262906
252	0xbeb42fb7	-0.35192654
253	0xbf6ce212	-0.92532456
254	0x3e66e71b	0.22549097
255	0x3db5038d	0.08838568

fc3.bias f4 [4]
0	0x3f23e99c	0.64028335
1	0x3dde72e4	0.108617574
2	0xbda9a639	-0.082836576
3	0xbd493423	-0.049121987
