checkpoint_critic.pth (torch_old, 542620 bytes, 5 tensors)

fcs1.weight f4 [400, 33]
00000000: 03c5 fa3e 62ad ec3e 8eac bb3d 919b 6cbb
00000010: ceff 983d 8497 33be e977 8c3c 71d7 26bd
00000020: ae56 e6bc 9d73 2b3e c934 a93a 149c 3e3d
00000030: ebd9 cfbb a0a5 0cbf dddc 00bf d165 6cbd
00000040: 9404 1ebc b8f7 b2bd cfaa 91bd 9e5f adbb
00000050: 7e86 a1ba 01a8 103b e583 2cba f29f 6fbd
00000060: 126c 04be 9219 babc e238 9e3e 5139 813e
00000070: d81e 98bb 2840 fcbb 0f47 81be b450 73bc
00000080: 87ce bf3e 1884 ba3e 6af1 f53e 208f 87bd
00000090: 68f5 e1be 8f1e 2a3d 8e1e 223a 4ba8 483e
000000a0: 99f9 2bbe 4e0f 473e 51ae 9ebe a296 883e
000000b0: e351 b63d b6bc d53c 9df3 483e d20a 093e
000000c0: ba46 9e3b 87e3 3ebe 563e f43c 3ba6 8ebe
000000d0: 60bb 503d 335c 3a3d 38d8 023e ce7f 67be
000000e0: c6b4 9e3d 0ed7 d73d dffe 85be 69f8 a0bd
000000f0: 7ce2 e93e 47cf 5dbd 8844 75bc 8a77 d5be
00000100: 3d2b dabc 51a1 adbf 23e9 8a3e 5ab6 963e
00000110: cc92 95be 12db 20be 21af 02be d438 c9be
00000120: 908f 07be ef1e 743e 55ce 893d 72e5 0f3d
00000130: 2381 c0bd b2f7 143e f207 e53d 3a90 d5bd
00000140: 6477 9bbe 35f0 003d ee20 85bd 7b04 85bd
00000150: d581 d5bd 32c5 2c3e 005e 713c 0302 943d
00000160: 22c4 023e 836a 543e 968e b2be d508 763d
00000170: 5b69 9e3c efb8 2d3f 5689 2a3d d60a a93c
00000180: b115 2bbf 58b8 aebb d360 163f 7bcf 96bd
00000190: 9363 7cbd 65ff c2bb d082 a5be e437 1ebd
000001a0: f275 d5bd 8089 043e 909e 893e f211 a4be
000001b0: 1826 a03e 32f1 66bd 926b fd3d 0072 013e
000001c0: 4440 b7be 9ed1 633d 4393 ec3d d4f8 5c3e
000001d0: df0c 1f3e 4275 97be 01ab 5ebc d7bb 003e
000001e0: cd9e e7bc 118f 99bc 91dd debd b0eb ca3c
000001f0: df94 c6ba 21f3 c53d c907 d23e 29de be3c
00000200: 1bb6 153d 6bc0 dbbe 2c18 3fbc c317 40bd
00000210: 1b5a 1f3d bc11 4cbf 4d36 c8be 6a83 40be
00000220: 896e 383e f51c 65be 8e67 3a3e 406a 803d
00000230: 91e2 14be d7fa e03e 4cb7 7cbd dfca 0ebd
00000240: db09 7fbc 014e 2cbe 31f7 293f 6e33 633e
00000250: d4cd 3abe 0d93 8cbc 188c d33d fa23 41bd
00000260: cfa0 78bc dd1e a5bc 86d3 9ebc aee8 f73d
00000270: 7a8b db3d 69c4 cb3d d193 523e 7a05 653e
00000280: 5911 7cbc d0f2 3c3b f9e8 6ebe c281 aa3c
00000290: 5c03 0a3f 5fe1 02be de86 8f3f 19ba 7b3e
000002a0: 597b 28be b7f7 563e 5ff3 873d 8717 9fbe
000002b0: abee acbe 979d febd d896 273c a81c c5bd
000002c0: 11cc 313e f79f 1fbe 2125 593d 7506 f63d
000002d0: 4139 623e 3ba2 063f 343e 813e 41db 04bf
000002e0: 83b7 33be 457c 5c3e 5d26 fc3d fd14 b33e
000002f0: 2433 c1bd a048 b03d e499 4dbe a673 08bd
00000300: 7326 5c3f 2801 053c ecb4 7fbc d240 53bf
00000310: 3ebe b93c 23c7 b9bd 2e9a 23be 2bd8 d63e
00000320: db03 a83e 54c8 113e f501 113e 8be1 913e
00000330: b7c2 b6bb 6a92 ff3c bebc be3e 8cd4 f3bc
00000340: f701 4dbe af71 623e 2cb6 f93d e984 48be
00000350: 8810 7b3f cfb6 b73d 5496 13bf 87b8 8e3e
00000360: e9c0 a9bd c361 603d ba4e 333e 673b fd3d
00000370: acbc b53d 5e0b a2bd c614 293e 6d54 b83c
00000380: ff81 a93e b882 f63e b9d1 f73d 624d fb3c
00000390: 411d ecbe 808a 01bc 6cef a43f 7a37 61bc
000003a0: 3dec bdbc 6e4f 3ebc 949c 4e3d 551e 49bd
000003b0: 7ca8 043f 9498 65bb 95b3 1b3c 7672 1ebd
000003c0: 1998 01bd 6b32 a13b 0ba1 d1bb 42a4 0e3b
000003d0: 37c6 3d3c 3b77 aabb ad01 3f3c aacd 70bc
000003e0: 1f1b 0bbd 3dce cbbb 9048 33bd bb7f 85bb
000003f0: f62e ed3a d3c3 6e3a af6c c83b 6dc5 8ebb
0.48978433 0.4622603 0.091637716 -0.0036103467 0.07470666 -0.17538267 0.017147021 -0.040732805
-0.028117504 0.16743322 0.0012909408 0.046535566 -0.0063431165 -0.54940224 -0.5033701 -0.057714287
-0.009644646 -0.08738655 -0.07112657 -0.0052909395 -0.0012323407 0.0022072794 -0.0006580933 -0.058502145
-0.1293185 -0.022717271 0.30902773 0.2523904 -0.0046423487 -0.0076980777 -0.25249526 -0.014850784
0.37462255 0.36428905 0.48035747 -0.06619096 -0.44132543 0.04153305 0.00061843626 0.19595449
-0.16794433 0.19439432 -0.30992368 0.26677424 0.089023374 0.026090961 0.19624181 0.13383034
0.0048302086 -0.18641482 0.02981488 -0.278612 0.050959945 0.045498084 0.12777793 -0.22607347
0.077493235 0.10539065 -0.26171014 -0.078598805 0.45680606 -0.054152753 -0.014969952 -0.41692764
-0.026631946 -1.3564855 0.27130994 0.29435998 -0.2921356 -0.15708569 -0.12762119 -0.3930117
-0.13238358 0.23839925 0.06728808 0.035130925 -0.09399631 0.14547613 0.11183156 -0.104279
-0.30364525 0.03147908 -0.065004215 -0.06494995 -0.10425154 0.16872099 0.014731884 0.07226946
0.12770131 0.20743756 -0.3487441 0.060067017 0.019337347 0.6786031 0.04163488 0.02063505
-0.66829973 -0.005332034 0.5874149 -0.073637925 -0.0616184 -0.0059508556 -0.32326365 -0.03862752
-0.10422887 0.12943077 0.26878786 -0.3204494 0.31279063 -0.056382366 0.12374033 0.12641144
-0.35791218 0.05561983 0.115515254 0.21579295 0.15532254 -0.29581648 -0.013590575 0.12571655
-0.028273964 -0.018744977 -0.10882104 0.024770588 -0.0015150568 0.09665514 0.41021565 0.023299294
0.036550622 -0.4292024 -0.011663478 -0.04689766 0.03890429 -0.7971456 -0.39103928 -0.1880013
0.18010916 -0.22374327 0.18203565 0.062702656 -0.14539553 0.43941376 -0.061698243 -0.03486144
-0.015566315 -0.16826631 0.6639281 0.22187588 -0.1824258 -0.017159963 0.10329455 -0.04715345
-0.0151750585 -0.020156318 -0.019387972 0.12104927 0.107199624 0.09949572 0.205642 0.2236537
-0.015384995 0.002883125 -0.2333106 0.020813826 0.53911376 -0.12781285 1.1213033 0.2458271
-0.16453303 0.20992933 0.06638216 -0.31072637 -0.3377584 -0.124324016 0.010228835 -0.09624606
0.17363001 -0.15588365 0.053013925 0.1201295 0.22092153 0.52591294 0.2524277 -0.51897055
-0.17550473 0.2153178 0.12312005 0.3497695 -0.094335824 0.08607602 -0.20078236 -0.033313416
0.8599617 0.008117951 -0.0156071 -0.8252078 0.022673722 -0.090711854 -0.15976784 0.41961798
0.3281544 0.14236575 0.14160903 0.28492388 -0.005577411 0.031197745 0.37253374 -0.029764436
-0.20020281 0.2211368 0.1219295 -0.19581951 0.980721 0.08970415 -0.5765126 0.27875158
-0.08288748 0.054780733 0.175105 0.12364846 0.08873877 -0.07912324 0.1651183 0.022501195
0.33106992 0.48146605 0.12100548 0.030676547 -0.4611607 -0.007906556 1.2885566 -0.013746137
-0.023183936 -0.011615617 0.050442293 -0.049101193 0.51819587 -0.003503357 0.009503265 -0.038683377
-0.031639192 0.0049193404 -0.0063973716 0.0021765386 0.011582903 -0.0052022017 0.011658114 -0.014697472
-0.03396141 -0.006219654 -0.043770373 -0.0040740645 0.001809566 0.00091081596 0.0061164717 -0.004357031

fcs1.bias f4 [400]
00000000: 9ab9 67be 6bd8 8cbe fa19 16bf 165b 99be
00000010: d6de ffbd 2f55 64bf fe80 cfbe 4e50 f4be
00000020: fb14 40bf 4c61 0ebf 210b e9be 992f 18bf
00000030: ef44 d7be b9ad dabe 9586 afbe c3fb f4be
00000040: 1a8e b4be a628 26bf 1ce8 18bf 3100 57bf
00000050: 83c4 04bf e5b4 37bf d306 ddbe 578d 89be
00000060: 32b7 45bf ad95 7abe eb2d 7cbf e68f 43bf
00000070: 1d97 12bf a4e2 46bf 7f2f cdbe 92d3 73be
00000080: c5fb 2ebf 5407 a5bf cf07 83bf 6b59 58bf
00000090: 53db d1be ef04 d0be 4e12 c1be e8b6 08bf
000000a0: cadb 91bf 3556 fcbe 1863 e2be 43a5 3abf
000000b0: 3387 62bf 5eb4 acbe e84a 41bf e9aa 91be
000000c0: df1f aebe 8ccd 2abf 232c 79bf de6b e2be
000000d0: 399a 10bf d02d f5be 21b0 dbbe 3eed 4ebf
000000e0: 2d53 6fbf 0078 f8be 3bfb a5bf e3d1 85bf
000000f0: b850 a3be 40d2 02bf b601 8ebe 2bed 1abf
00000100: f228 36bf b231 2dbf 3510 2fbf 6195 63bf
00000110: b8f4 8bbe b70e 28bf cf4e 5ebf feb9 25bf
00000120: ac4a e4be 6d34 5bbe 61f6 0abf 7344 40bf
00000130: 57ab 41bf 6a2e 73bf b569 c2be 4ccf 37bf
00000140: 11cd 05bf 7ad3 a4be b165 06bf afe2 f1be
00000150: 8a11 f4be 27ae 24bf ff3a 5bbf 8159 69bf
00000160: 0287 28bf 3441 f5be 73df e5be 2312 47bf
00000170: 5ea4 c4be 4222 ccbe a911 1ebf 491d 43bf
00000180: 7e44 0ebf 2fb3 61bf 5e47 55bf 5479 6bbf
00000190: e86c dfbe a6a9 abbe 3e13 5ebe 73a2 26bf
000001a0: c743 58bf 32ba 7dbf 99b1 eebe 88f5 18bf
000001b0: d53c 47bf 628b ddbe 724c 40be e577 b3be
000001c0: 18a8 3abf 3f21 47bf 7e7d 5dbf b9bf cfbe
000001d0: dd8a 0bbf b960 4dbf 8d74 acbe bd3d 5bbf
000001e0: 83bb 38bf e133 dcbe 2f7b 04bf 552f 62be
000001f0: a615 39bf 0e1e 17bf bdd2 9c3e 3f18 25be
00000200: 62fb bdbe c2e6 c7be 9a86 07bf 24d2 3fbf
00000210: e242 4abe 0394 54bf 97df 25bf d322 0cbf
00000220: 34ab 5abf cf60 45bf 56b2 d4be f71c 46bf
00000230: 4c42 59bf c5f4 58be 0c1a e9be c3e0 f1be
00000240: e8cb b3be 6e82 9abe 8d1f 98bf e80b 5bbf
00000250: 8160 cbbd 8c43 2abf d78c 87be 9837 983e
00000260: b310 8e3e d3c9 d83d 697d 2b3f 5604 39bf
00000270: 7878 29bf e32a 4fbf d88f 78be 9695 1abf
00000280: bb97 09bf 73c4 55bf 2785 1cbf 8fd2 1ebe
00000290: fa45 f7be 9087 8dbd a154 25bf 744f 0dbe
000002a0: d815 4ebf b0ca 21bf 2fda 1cbf a760 07bf
000002b0: 4daa 07bf 0dd1 1ebf ffc8 31bf c60a 60bf
000002c0: 04ea 17bf b223 6cbf ea8e 54bf 471b b9be
000002d0: 135f 67bf 6696 8cbe c0ad ecbe 4da0 a0be
000002e0: bccc 17bf acd8 21bf 961a c3bd 01c9 f6be
000002f0: 795d 14bf 2fb5 f9be 18fc cdbe 93de 32bf
00000300: 9bfe 4ebf b78c 2f3c 4461 12bf f9d7 cdbe
00000310: 94b2 31bf 734b 32bf bed5 2dbf f0ff 97be
00000320: 509a 2cbf 4d49 40bf d160 d6be 6d63 bfbe
00000330: e568 78bf e306 4bbf 6a38 70bf 0795 30bf
00000340: 8099 21bf 0f94 4ebf 7306 2ebf cee1 1abf
00000350: 26fb 7dbe 8842 73bf e26e 08bd 1cd2 17bf
00000360: ad72 1abf 703d d6be bd82 02bf 5706 35bf
00000370: 4936 12bf 0d87 5ebf 0a68 78bf 681d b9be
00000380: 4241 bdbe 092f cabe 3d11 d5be b385 b5bd
00000390: 3d54 febe 61cd a3be 5d9d 44bf f838 01bf
000003a0: a6d6 4cbf c42a ebbe b506 86bf 0e93 6fbf
000003b0: f165 5ebf 9a3e 48bf 39ba 43be 91e4 31bf
000003c0: b4f2 54be 5ffc 34bf 785e 37bf 2508 1dbf
000003d0: 02b6 eabd 9b4a 5abc 6e8e fbbe 407f f3be
000003e0: 4cb6 1bbf 3577 89bf 7410 d9bd ea47 5ebf
000003f0: 49e1 e3be e3fe 42bf ba01 6d3d a677 48bf
-0.22629395 -0.27508864 -0.5863339 -0.29952306 -0.124936745 -0.8919248 -0.405281 -0.47717518
-0.75032014 -0.55617213 -0.45516303 -0.5944763 -0.4204478 -0.42710665 -0.34282365 -0.4784833
-0.35264665 -0.64905775 -0.5972917 -0.8398467 -0.51862353 -0.717604 -0.4316927 -0.26865646
-0.7723266 -0.2447116 -0.98507565 -0.76391447 -0.5726183 -0.77689576 -0.400753 -0.23811176
-0.6835292 -1.2892861 -1.0236758 -0.8451144 -0.40987644 -0.40628764 -0.37709278 -0.5340409
-1.1395199 -0.4928452 -0.44216228 -0.7290842 -0.8848755 -0.3373136 -0.7550492 -0.28450707
-0.3400869 -0.6671989 -0.9733297 -0.4422292 -0.56485325 -0.47886515 -0.42907813 -0.8083075
-0.9348629 -0.48529053 -1.2967294 -1.0454677 -0.3189752 -0.51102066 -0.2773568 -0.6051814
-0.7115623 -0.67653954 -0.68384105 -0.8889981 -0.27335143 -0.65647453 -0.86839 -0.64736927
-0.4458822 -0.21406718 -0.54282194 -0.75104445 -0.7565207 -0.949927 -0.37971273 -0.71800685
-0.5226603 -0.32192594 -0.5249892 -0.47243258 -0.4766963 -0.64328235 -0.85636896 -0.911522
-0.65831006 -0.4790131 -0.4489704 -0.7776205 -0.38406652 -0.39869887 -0.617457 -0.7621656
-0.5557326 -0.8816404 -0.8331202 -0.9198201 -0.43637776 -0.3352787 -0.21687028 -0.6509163
-0.8447842 -0.99112236 -0.4661987 -0.5974965 -0.778272 -0.43270403 -0.18779162 -0.3505241
-0.7291274 -0.77785105 -0.8651961 -0.4057596 -0.54508764 -0.8022571 -0.3368267 -0.8564108
-0.7216112 -0.4300833 -0.51750463 -0.22088368 -0.7229866 -0.59030235 0.3062953 -0.1612253
-0.37105852 -0.39043242 -0.5293976 -0.74930024 -0.19752076 -0.8303835 -0.64794296 -0.5474064
-0.85417485 -0.77100843 -0.4154231 -0.77387947 -0.84866786 -0.21187122 -0.45527685 -0.47241792
-0.35116506 -0.30177635 -1.1884629 -0.8556504 -0.09930516 -0.6650932 -0.2647464 0.29729915
0.27747115 0.1058537 0.66988236 -0.7227224 -0.66199446 -0.80924815 -0.24273622 -0.603845
-0.5374715 -0.8350288 -0.61140674 -0.15510009 -0.48295575 -0.06910622 -0.6458226 -0.1379984
-0.8050208 -0.631999 -0.6127042 -0.52881855 -0.52994233 -0.62037736 -0.6944732 -0.8751644
-0.59341455 -0.92241967 -0.8303057 -0.36153623 -0.90379447 -0.27458495 -0.4622631 -0.313723
-0.59296775 -0.6322124 -0.09526555 -0.4820023 -0.5795513 -0.48771045 -0.40231395 -0.6987087
-0.8085725 0.010714701 -0.57179666 -0.40203837 -0.69413114 -0.69646376 -0.6790427 -0.29687452
-0.6742296 -0.7511185 -0.4187074 -0.37380543 -0.97035056 -0.79307383 -0.9383608 -0.689774
-0.6312485 -0.8069467 -0.6797859 -0.605008 -0.24802837 -0.95023394 -0.03330887 -0.59304976
-0.6033123 -0.41843748 -0.5098074 -0.707128 -0.5711408 -0.8692482 -0.9703375 -0.36155248
-0.3696385 -0.3948901 -0.41614714 -0.08863392 -0.49673644 -0.3199263 -0.7680262 -0.5047755
-0.8001503 -0.45931065 -1.0470797 -0.9358376 -0.868743 -0.7822052 -0.19114007 -0.6948939
-0.20795709 -0.7069759 -0.7162852 -0.6134055 -0.114604965 -0.013323451 -0.49132103 -0.47558022
-0.6082504 -1.0739504 -0.10598841 -0.8682848 -0.44507816 -0.76170176 0.057862975 -0.7830757

fc2.weight f4 [300, 404]
00000000: 79a8 a83b 3e29 a73c 95d0 ffbb 387e 3dbd
00000010: 05cd f1bd d97b 3b3c 683d 8ebd 5592 4ebd
00000020: a6c3 a5bd cc22 8dbd 89aa 91bc bb3e a0bc
00000030: dd7a b6bc cbae 06bc afb1 e23c 5470 f8bc
00000040: 6165 dd3b b36f 81bd 6b9b abbb 9a5c 57bd
00000050: 111a 0e3c cd53 0abe 5913 14bd e6a0 16bd
00000060: 5dd0 f83c a8b4 31bd 55bc 71bd 8121 563c
00000070: c55f 84bd 3fd9 85bc 20cb ed3c 0ad0 9cbc
00000080: 1e47 223b 8c09 483d 5f27 f5bb c261 39bd
00000090: e861 9ebd ce11 79bd 1a87 e0bb b44c 063d
000000a0: 7cf5 293d 2a51 0abd 05a7 17bd 55af 233d
000000b0: 9c87 203d 0c6a 6c3d e6b3 64bd 75f3 dbbb
000000c0: 2de7 a4bd 3ebb 9abd f102 ce3c ed2e 95bd
000000d0: b51e 2cbd 89c7 50ba 6712 2fbd c173 b6bd
000000e0: 7f11 0b3d 453b 943c 0f88 08bd 501b a1bc
000000f0: ea17 f7bc d079 f73c b293 4f3c 8664 8fbd
00000100: 827a 6dbd 5f49 dabc 7f01 203d a131 96bd
00000110: 1ea1 5ebd b5e7 84bd 6d6c 573d 07c6 a33b
00000120: c5ad e1bb 8a14 28bd d7cf d23c 32b1 313d
00000130: 86f3 2abd a933 2d3d f5e5 02be 2d6a 123d
00000140: b2f5 203c d398 39bd 3606 7abc 1336 c7bd
00000150: 17ce babb 5601 7fbd 70d4 e13b b640 5fba
00000160: 439f 463c 76a8 083d 9e49 7dbd 5f64 8a3c
00000170: 9453 973a 311b 473c f90f 3a3c 3b08 a3b9
00000180: 69f9 aa3d d25c 4ebd f23c b1bb d132 32bd
00000190: 83a8 1abd c619 ccbd dbae b6bd f6dd 8b3c
000001a0: 2c28 99bd 6408 0cbd 1442 0b3d dde0 85bd
000001b0: cb27 41bd 74cb 953c 1043 50bd 312b 09bd
000001c0: 73c9 18bd 60e4 453b 3d52 543c a357 91bc
000001d0: 9358 b0bd aed4 b2bc 1518 86bd 3210 54bd
000001e0: c748 dfbc 2b9c 353d 71d5 9ebc 9abe 6cbd
000001f0: 8378 fd3b 2557 0bbd ab9f 3f3d f96a 3d3d
00000200: 85d8 103d af05 bdbd 2c10 8e3d 4c34 5e3d
00000210: 24f3 67bd 8cc1 d8bc 6d16 82bd 2344 b6bc
00000220: e3e2 e9bb 4c82 2a3d 1173 f93c 7618 44bd
00000230: de82 3c3d 8cc8 62bd 8391 b23c d30c e0bd
00000240: c978 60bd 5f1d c83c 8bc9 b83b c58f 38bc
00000250: d307 89bd 7d44 98bb 5d8c 16bd 7069 35bc
00000260: 9a71 12bd e495 ef3c 26fd 94bd 852f dd3c
00000270: 2f75 9cbd 5da1 57bc a308 0bbd 59fb dbbc
00000280: 73b7 e6bc f58d e5bd cf4f a7bd 2b7f 68bd
00000290: cc95 bbbd 9447 5d3c 4a36 6ebb 9b7b a3bd
000002a0: 442d 89bd ad55 273d 8378 e8bc 0a26 14bd
000002b0: ad65 0bbd d5ae 82bd c2fc dd3b a509 df3c
000002c0: c89a 13bd b2a6 99bb 3fb5 c53c 805d 83bd
000002d0: d13b f7bc a506 5fbd f71c 733b 4555 a7bd
000002e0: bd7b b0bd b037 14bd c40a c8bc e959 ff3c
000002f0: 0993 63bd da6f 90bc bd41 de3c 3b97 3d3d
00000300: d1c7 7fbd ec00 ba3c b47c debc 8f9e 28bd
00000310: 7951 233c 4a4c 283d b03f bd3a 97b8 94bd
00000320: 932c 9ebd e06f 183d b2fe 7cbd ec99 81bd
00000330: 7971 f83b 0d7e 17bd b9ea f6bc b82c 1dbc
00000340: b50a b7bb 5206 c6bb 5cdb 93bc 8011 76bd
00000350: 974a abbd 4156 08bb 90ed 98bd 31a1 143d
00000360: b6ab d6bc d4c0 c9bc ef92 8dbd c14a ec3c
00000370: b56f 99bd 5252 1b3c 68a1 73bd 853b 12ba
00000380: ea33 92bd 8ae7 8ebd 8476 93bd 96b8 4fbc
00000390: c6ed 45bd 66f5 6cbb f5a3 5d3d d4f6 023d
000003a0: 1c92 813c 32a6 1fbc ccbc 02bd f322 f2bc
000003b0: 7caf 19bd 7c44 afbb 046d a63c 8f5d 88bd
000003c0: debb 62bd 457a f6bb dc3b 48bc 4851 543d
000003d0: 23cf acbc 7e86 44bd 291f 54bc aa3c 713d
000003e0: 52f5 9fbc bf83 e03c 5957 96bd 7557 f9bd
000003f0: f0f0 6ebd 7f20 91bb 4775 13bd 3bdd b4bc
0.0051470366 0.020405408 -0.0078068473 -0.04626295 -0.118066825 0.011443102 -0.06945306 -0.05043252
-0.080939576 -0.068914026 -0.017781513 -0.019561162 -0.022275383 -0.008220385 0.027672617 -0.030327
0.00675647 -0.06320133 -0.005237033 -0.052578546 0.008673207 -0.1350853 -0.036151264 -0.03677454
0.030372793 -0.043385178 -0.059017498 0.013069511 -0.06463579 -0.016338943 0.029027522 -0.01914217
0.0024761627 0.04883723 -0.0074815 -0.045259245 -0.07733518 -0.060807995 -0.006852043 0.032787994
0.041493878 -0.03376881 -0.037024517 0.03996213 0.039191827 0.05771832 -0.055835627 -0.006712372
-0.08051906 -0.07555245 0.025147887 -0.07284341 -0.042021472 -0.00079643034 -0.04274216 -0.08908797
0.033952232 0.018094668 -0.03333288 -0.019666344 -0.03016277 0.030209452 0.012669491 -0.07001595
-0.05797816 -0.026646314 0.039063927 -0.07333685 -0.054352872 -0.06489507 0.052593637 0.004997972
-0.00688717 -0.041035213 0.025733871 0.043381877 -0.04173615 0.042285595 -0.12783034 0.03574579
0.009824203 -0.04531176 -0.01526027 -0.09727111 -0.0057008374 -0.062257133 0.0068917796 -0.00085164176
0.012122932 0.033363782 -0.061837785 0.016893564 0.0011545294 0.012152479 0.011356347 -0.00031095915
0.083483525 -0.05038149 -0.0054088766 -0.043505494 -0.03775836 -0.099658534 -0.0892007 0.017073613
-0.07478365 -0.03418769 0.033998564 -0.0653703 -0.04715709 0.01828549 -0.050845206 -0.033488456
-0.037301492 0.0030195937 0.01295906 -0.017741984 -0.08610644 -0.02182993 -0.06547562 -0.051773258
-0.027256383 0.044338387 -0.019388886 -0.05779896 0.0077353134 -0.034018654 0.04678313 0.046244595
0.03536274 -0.092296 0.06936678 0.054249093 -0.05662836 -0.026459478 -0.06351934 -0.022249287
-0.0071376427 0.041628167 0.030450376 -0.04787489 0.046023242 -0.055367038 0.021797901 -0.10939946
-0.05480269 0.024428068 0.00563926 -0.011264746 -0.066909455 -0.0046468363 -0.036754955 -0.011072502
-0.03575287 0.029246278 -0.07274847 0.027000198 -0.076395385 -0.013161031 -0.033943783 -0.02685325
-0.028163647 -0.11208717 -0.08169519 -0.0567619 -0.09159431 0.013505835 -0.0036348277 -0.0798256
-0.06698087 0.04085319 -0.028377777 -0.03616909 -0.034032512 -0.06381003 0.006774516 0.027226279
-0.036036283 -0.004689061 0.024134276 -0.06414318 -0.03017989 -0.054449696 0.0037096122 -0.08170561
-0.08617351 -0.03618592 -0.024419196 0.031170802 -0.055560146 -0.01763146 0.027130956 0.046286803
-0.06244642 0.022705518 -0.027159072 -0.04116684 0.009968155 0.04108838 0.0014438536 -0.0726177
-0.077233456 0.037216067 -0.061766334 -0.063281864 0.0075818864 -0.036985446 -0.030141221 -0.009593181
-0.005585993 -0.006043234 -0.018048935 -0.060075283 -0.08363836 -0.0020803364 -0.074671865 0.036286537
-0.026204925 -0.02462808 -0.06912791 0.02884424 -0.074920096 0.009480076 -0.0594801 -0.0005578327
-0.07138808 -0.06977756 -0.072003394 -0.012678286 -0.04832246 -0.003615701 0.05411144 0.031973675
0.01581674 -0.009744214 -0.031918332 -0.02955768 -0.03752087 -0.00534874 0.020315655 -0.0665847
-0.055354945 -0.0075219 -0.012221303 0.05183533 -0.021094864 -0.047979824 -0.012946882 0.058895744
-0.019526158 0.027406571 -0.07340879 -0.12174884 -0.058335245 -0.0044289227 -0.036000516 -0.022078147

fc2.bias f4 [300]
00000000: 8a5e 68bd ec77 b43e 36e3 efbd c221 fdbd
00000010: c836 f3bd 20ec a6bd 6a78 97bd 4175 dbbd
00000020: ed63 c7bc 7570 cc3d 9e0f 10bd 1e86 bcbe
00000030: 3ef8 3dbb 5f58 04bc f568 b0bd 1a2e 31be
00000040: 1720 9abd 65a9 c5be 6ed1 f9bd 93f3 0bbd
00000050: 44b3 95bc b9a3 e2be 5586 8abd f58f efbe
00000060: 952d 6c3e 4581 d73e 3210 85bd 1ec0 2d3f
00000070: aad0 093f c80c 363c 7ceb cbbc 5fdb 38bc
00000080: 4b01 33bd 3016 54bd c3cc e2bd 4e77 6bbd
00000090: ec57 a7bd 1ccf ffbb 7111 9abd 4d8a 993e
000000a0: 2f6a 18bd 1849 6dbd fae5 1d3f 04c9 b2be
000000b0: e0c0 01bd e57d 00bf 6be8 ddbd a689 07bd
000000c0: 53e8 e7bd ec48 c13e bede 123f 27be 233f
000000d0: 0196 80bd 13a0 dc3b e3bb 3a3e 19c0 bcbd
000000e0: 4fa0 3c3e a62b 183e 211e d2bb 1a58 7cbd
000000f0: f8fa 5f3f ebed d5bc 52a5 d0bd 0a36 fd3e
00000100: 5a4b 173f 6076 b9bd e5d9 9dbd b4c2 bdba
00000110: 16c8 8dbd 8bd2 b33e f639 d9bc 416d ccbc
00000120: f3e5 3cbc 173a 9cbc 97d4 48bd 9ee4 46bc
00000130: 1634 8abd 82d4 4bbc ffba 96bd 9128 01bd
00000140: c762 a03e 5290 87bc d65b 363f 4ea3 35be
00000150: e1ef 0ebd 7c45 aabd 0d3f 8dbd e352 68bd
00000160: f08c b53e 4343 4ebd 8cfd 21bd ffcd 08bd
00000170: 346c 49be 06fe 99bd 6233 01bd 762b 54bd
00000180: d0d0 d7bd 26a4 62bd e38d 353e efee 1bbd
00000190: 5258 ccbe 04d5 05bd fb6e 27bd b46e 92bd
000001a0: 13d0 c7bd 44bd 34bd 8b34 bfbe 3fa9 8d3e
000001b0: 1a2f b53f bda1 96bd 52b9 6ebd 77c4 22bd
000001c0: 052f f2bc 4faa fb3d eb80 84bd 6f65 f4bd
000001d0: 1920 ed3e 0657 723d 2e8d 0f3f 5152 093f
000001e0: 9e68 06bd 37c2 ae3d cc72 88bd e655 763b
000001f0: ced4 5b3e 2c14 043f 17df 87bd cf63 40bd
00000200: 6e75 87bd 99ab 123f 9fc3 c7bc fab5 a1bd
00000210: d583 d6bd d3cf 90be 3101 8fbd d24a 43bd
00000220: c16c 8cbd c4f3 e2bc 6e24 a0bd 82a7 cbbd
00000230: 4a8d b2bc e87f 053e 9b4d 93bd f106 09bd
00000240: 925c d9bd 941a a5bd 38fb d9bb 8cfd 06be
00000250: 9161 c53e 2dba 04bf aeb0 e53e ff17 ebbd
00000260: 19d6 b0be f5c2 eabc aa6d 1fbd 5754 84bd
00000270: 3a3e a8bd bf9d 1e3f 1815 d7bd 617f c0bd
00000280: 2dbd 2c3e e71c c1bb 6018 bf3e 68aa c6bd
00000290: f5a5 33bc b0ec f4bc 00a8 1cbe 0002 67bc
000002a0: 44a1 a4bc be5e fb3c 6754 14be 5ae8 19bd
000002b0: 4853 5bbd d862 7fbd d65a c5bd a6cb 07bd
000002c0: eda0 1c3e ed22 53bc f49a dabc f716 3fbd
000002d0: 4fbc adbd 33b1 93bd 5312 5fbc c1d6 6bbd
000002e0: 3b3f 323d c3fb fabd cef2 49bd 376a 873d
000002f0: 7fb8 1bbd fd14 063f e05a 1c3f d3c2 9cbc
00000300: 1f60 283f 6f86 9fbd 3f0a 4dbd b406 8cbd
00000310: 8f45 12bd ec1b a6bd de50 82bc 0000 99bd
00000320: 148b a7bc 0c17 92be 8319 30bd cec6 01bc
00000330: ab26 aa3e 199e 16be 3486 37bd da50 383f
00000340: 1b8d febd 69e7 a1bd 0ae2 8dbd 9cd1 86bb
00000350: a33c f2bb d506 883e f587 963e fe5b 94bd
00000360: eb6e 0b3e 66ba dbbd 46e6 e0be 88d2 c53e
00000370: fa8e c23b 070b 0dbd dab0 a6bd 06e6 58bd
00000380: 22e5 0c3f 13cd 38bd 39fc 8cbc 4fb7 9f3d
00000390: 8839 df3e 356b 9a3e c6bd 403f 7222 0cbd
000003a0: d1b8 84bd 6e53 7d3d 806b 87bd e0aa 84bd
000003b0: 7bc1 3fbd 666f 583f bd9b 2e3e f55c 74bd
000003c0: 0d26 81bd f3a1 9abd 828a 6bbd cda4 0b3f
000003d0: ca9d 3bbc 1ec7 2ebd 6d64 04bd 9bc3 f1bc
000003e0: 3460 86bd 5399 6dbe 21ef 42bd 7d9e 3ebc
000003f0: efe1 283f 29b4 63bc 12dd 8cbd 652a 603f
-0.056730784 0.35247743 -0.11713259 -0.123599544 -0.11875683 -0.08150506 -0.07396014 -0.10715724
-0.02433964 0.09982387 -0.035171144 -0.36821073 -0.0028987075 -0.00807771 -0.08613769 -0.17302743
-0.07525652 -0.386058 -0.12198149 -0.034167837 -0.018273957 -0.44265535 -0.06763903 -0.46789518
0.23064263 0.42090812 -0.0649723 0.6787127 0.5383402 0.011111446 -0.024892561 -0.011282771
-0.043702405 -0.051778972 -0.110742114 -0.057486825 -0.08171067 -0.007806672 -0.07522858 0.29988328
-0.03721064 -0.057931036 0.6167904 -0.34918988 -0.03167808 -0.501921 -0.10835346 -0.033090256
-0.11323609 0.37750947 0.5737113 0.63962024 -0.06278611 0.0067329495 0.18235736 -0.09216327
0.18420528 0.148604 -0.006412283 -0.061607458 0.8749232 -0.026114425 -0.10187782 0.4945529
0.5909935 -0.09055781 -0.07707576 -0.0014477582 -0.06922929 0.3512157 -0.026516896 -0.02495444
-0.011529434 -0.019070668 -0.049030866 -0.0121394675 -0.06748216 -0.0124408025 -0.073598854 -0.031532828
0.3132536 -0.01654831 0.7123388 -0.17738077 -0.034896735 -0.08314034 -0.068967916 -0.056719672
0.3545909 -0.050357115 -0.03954844 -0.03339958 -0.19670182 -0.07519154 -0.031543143 -0.05179926
-0.10537875 -0.055332325 0.17729907 -0.03806966 -0.39911133 -0.03267385 -0.040877324 -0.07150021
-0.09756484 -0.04412581 -0.37344775 0.27668187 1.4154999 -0.07355068 -0.058282204 -0.039738145
-0.029563436 0.12288343 -0.06469902 -0.119334094 0.4631355 0.059165023 0.560748 0.5364123
-0.032814614 0.08533137 -0.06662521 0.003758782 0.21467897 0.5159328 -0.06634348 -0.046970185
-0.06614195 0.5729309 -0.024385272 -0.078960374 -0.10474364 -0.28283557 -0.06982649 -0.047678776
-0.06856681 -0.027704127 -0.078194484 -0.09944059 -0.021795888 0.13037074 -0.071925364 -0.033453885
-0.106133595 -0.0806171 -0.006652262 -0.13182658 0.38551 -0.5184658 0.44861358 -0.11479186
-0.34538344 -0.028657416 -0.038922943 -0.06461399 -0.08214994 0.6195945 -0.1050207 -0.093992956
0.1686904 -0.005893338 0.37323284 -0.09700471 -0.01096486 -0.029898018 -0.15298462 -0.014099598
-0.020096429 0.030684825 -0.14485322 -0.037575103 -0.05354622 -0.062350124 -0.09636466 -0.0331532
0.15295763 -0.012886745 -0.026685216 -0.04665276 -0.08483183 -0.072115324 -0.013615209 -0.057577852
0.043517333 -0.12255051 -0.049303822 0.06612056 -0.038017746 0.52375776 0.61076164 -0.019135868
0.6577167 -0.07789313 -0.0500586 -0.06837216 -0.035710867 -0.081107944 -0.015907701 -0.07470703
-0.02045206 -0.28533208 -0.04299308 -0.007920934 0.33232626 -0.14708747 -0.04480572 0.7199837
-0.124292575 -0.07905466 -0.06927879 -0.004114343 -0.0073924824 0.26567712 0.29400602 -0.072441086
0.1361653 -0.10728912 -0.43925685 0.38637185 0.0059374543 -0.034434345 -0.081392005 -0.052953742
0.5503713 -0.04511745 -0.017210113 0.07798635 0.4359858 0.30159917 0.7528957 -0.034212537
-0.064805634 0.061847143 -0.06612301 -0.06477904 -0.046815377 0.8454498 0.17051597 -0.059658963
-0.06306086 -0.075504206 -0.05750514 0.5454834 -0.011451194 -0.04267036 -0.032322336 -0.029512217
-0.06561318 -0.2320302 -0.047591332 -0.011634466 0.6596975 -0.013897934 -0.06878103 0.8756469

fc3.weight f4 [1, 300]
00000000: 74a4 173b 914c a73c 5eaa 273b 20d1 9f3c
00000010: 6332 8d3c 7e2d 42bc 063c 823b 08d2 343d
00000020: d32e 423c b082 143d cdef b9bb 6b8d 00bd
00000030: 85ee ec3a 51d9 383c 4fad 84bb 25cd f0bd
00000040: 698d eeba 0f63 88bc 0541 8bbc a7a8 1bbb
00000050: 76dc 803c 09f2 05bd 44ae acbc 6003 11bd
00000060: 8db3 c43c 05f9 5c3c 5dac 6cbc f3ce 853c
00000070: 6377 433c 0a94 83ba af25 bb3c 39bd 123a
00000080: 678b abbb 7b03 35ba ffa1 fc3b c446 8a3c
00000090: d6f2 c4bc f4b5 423c 3716 0cbc ea4f 793c
000000a0: 5aeb cfbc 9962 a6bb 00f5 863c ad31 6cbc
000000b0: 9309 fc39 7cc7 fdbc 30cf 11bc 8c6c 4f3b
000000c0: 20c8 a9bc 43c6 af3c 39ca 433d 1b6b 813c
000000d0: 0473 0b3b 7bb8 90bc 0186 513c 6fb1 e2bc
000000e0: 4965 ad3c 241d 123d bc50 36bc 9570 abbb
000000f0: 6181 cd3c acce c83b e46a f3bb dd84 ca3c
00000100: 0ba6 ca3c 4367 ffb9 a8a8 72bc 109f 3c3c
00000110: fcb3 a0ba 66df 753c 123f 553c 64eb e83b
00000120: 4b9b 9ebc 1660 073c 7896 4abc 5359 aebc
00000130: 4428 ee3a a336 b6bc 45d6 f2bb 69a1 afbc
00000140: ede9 3c3c 7e85 51bb 476f d33c c45b 0bbe
00000150: ef8b 29b9 ad98 5a3c d780 153c b89f aabc
00000160: cafa ab3c c077 cfbc b009 a3bb 109d 133c
00000170: 01d7 42bd 4b8f 2cbc 2a7b 55bc 0cbe cabb
00000180: c57c 5a3c e2d7 ceba fceb 923c 2a96 b2bb
00000190: b207 51bc 1078 303b df85 d53a be28 8b3c
000001a0: 6b30 82bb 5a88 37bb a9b7 cbbc 3290 bd3c
000001b0: 46e5 f93d 3449 c3bc d3dd 2d3c 4603 42bb
000001c0: 2043 0e3c 630d 203d 11cc 2cbb 7135 01bc
000001d0: f1ee 973c f07d d33c 8fab a63c 16a4 e83c
000001e0: 0f77 7d3c a04b 4f3c 9c17 bdbc 550a bcbb
000001f0: 69b0 b33c 2f2a 123c 622c 89bc b810 783b
00000200: b0f4 71bb 5d59 473c 5ecc e13a f5bb c03a
00000210: abd2 b8bc 9e3f 86bd c432 61bc 751d 9ebb
00000220: d6df 743b 1391 debc 96cf a0bc 1730 6639
00000230: d74e 463c 7890 813c 31e5 a53c 93ef 813c
00000240: 344f d73b 1311 7b3b 9932 903c 28cd 023b
00000250: b684 6e3c 777b eebc 7c9b 4a3c 5aad 773c
00000260: 91a2 e2bc 4dba 9cbc 630e 93bb cadc 373c
00000270: 9a95 61bb b2ea cb3c d5da cfbc 70ce e03c
00000280: c6c4 033d c094 9cbb 8de7 083d 989e aabc
00000290: 1a58 963c 0a74 973b a81f 643d 6529 fa3b
000002a0: 776c 823c e1e9 53ba 73f6 9d3c 6fca ca3c
000002b0: b4b8 a2bb 6b03 523c 222b df3c a3f1 94bb
000002c0: fcac 173d 4fbd 66bb 775e 323c e117 cabb
000002d0: d421 5b3c 4c65 29bc b1e1 57bc 7f73 7fbb
000002e0: 631d ae3c 26ff a2b8 4c81 40bc 3158 b93c
000002f0: a26a 883c ef3f 643c 28bb ca3c fd04 40bc
00000300: 13f7 893c 66a9 7bbc 9e59 34bc 3ba1 ab3c
00000310: 4283 50bc 78d2 fb3b af95 92bb 6061 0abc
00000320: de8c 0e3b 21f6 8abd c02a 8fbc d3da 043d
00000330: 9e9b 803c 911c 4fbc bda6 e53c f942 1c3d
00000340: 7717 15bc 131a d53c 8c96 f93b 27b7 883b
00000350: 53cd e93a de86 973c ef2c 583d 5fca 59bc
00000360: 1e33 683d 148e 32bb 27e2 61bd 0624 d63c
00000370: 4158 c33b 8b36 9bbb 71ef 243c 06a6 d9bb
00000380: 0734 8d3c 7aad c73c 32d8 2b3b 7336 5d3d
00000390: 59be 993c 9748 803c 8dbe 053d b380 b83c
000003a0: b95e 3cbc 9c34 9d3d eb7d a7bb 3dfe e33c
000003b0: c948 8cbc 07f7 853d 978e b53c fbee b63a
000003c0: 5dd0 43bb d6ec 013c b9fb 673c 0a6a f03c
000003d0: 983e f1bb 2e83 d4bb 455d 93bc b147 54b9
000003e0: be1c 2cbc 9cf4 16bd c013 91bc 02fd 54bb
000003f0: d448 b33c 57e9 76bb f2c9 debc a1bf 563d
0.0023138793 0.020422252 0.0025583724 0.019508898 0.01723594 -0.0118516665 0.0039744405 0.044145614
0.011851984 0.036257446 -0.0056743384 -0.031384867 0.0018076455 0.011282281 -0.0040489803 -0.11757878
-0.0018200102 -0.016648797 -0.016998777 -0.0023751648 0.015730124 -0.032701526 -0.02107919 -0.03540361
0.024011398 0.013487105 -0.0144453915 0.016334033 0.0119303195 -0.0010038626 0.022845117 0.00055976544
-0.005235124 -0.00069051207 0.007709741 0.016879447 -0.024041574 0.011884201 -0.008550218 0.015216807
-0.025380779 -0.0050776717 0.016474247 -0.0144161405 0.0004807232 -0.03097891 -0.008899495 0.0031650392
-0.02072531 0.021456843 0.047800276 0.015798142 0.0021278271 -0.017666092 0.012788297 -0.027672498
0.02116646 0.035672322 -0.011127647 -0.0052319267 0.025086107 0.006128153 -0.007428514 0.024721557
0.024737379 -0.00048714326 -0.014810719 0.011512533 -0.0012260671 0.015006876 0.013015525 0.007108139
-0.019361159 0.008262655 -0.012364976 -0.021282827 0.0018169959 -0.02224285 -0.007410797 -0.021439271
0.011530382 -0.0031970437 0.025809897 -0.13609225 -0.00016169225 0.013342065 0.009124956 -0.020828113
0.020993609 -0.025325656 -0.00497552 0.009009615 -0.047568325 -0.010532211 -0.013029853 -0.006187206
0.013335411 -0.0015780891 0.017934792 -0.00545003 -0.012758182 0.0026927032 0.0016290507 0.0169872
-0.003973057 -0.0028004856 -0.02486785 0.023140047 0.122019336 -0.023838617 0.010611969 -0.0029604002
0.008682996 0.039075267 -0.002636675 -0.007886277 0.018546553 0.025816888 0.020345477 0.028398555
0.01547028 0.012652308 -0.023082547 -0.0057385364 0.021934705 0.00892119 -0.016744796 0.0037851762
-0.0036919527 0.012167302 0.0017227044 0.0014704453 -0.022561392 -0.06555103 -0.013745014 -0.004825289
0.0037364862 -0.027168786 -0.019630235 0.00021952424 0.012103758 0.015815958 0.020250889 0.015861308
0.006570721 0.0038309738 0.017602252 0.0019958708 0.014558008 -0.029111607 0.012366172 0.015117014
-0.027665408 -0.019131804 -0.004487799 0.011222074 -0.0034421445 0.024892185 -0.025372902 0.027442187
0.03217008 -0.0047784746 0.03342395 -0.020827577 0.018352557 0.004621987 0.055694252 0.007634329
0.01592086 -0.0008083862 0.019282555 0.024754731 -0.004965866 0.012818198 0.027242247 -0.004545407
0.037030205 -0.0035208052 0.01088678 -0.0061673974 0.0133747645 -0.010339092 -0.013176368 -0.0038978753
0.021254247 -7.772287e-05 -0.011749577 0.02262506 0.016652409 0.013931259 0.024747446 -0.011719939
0.016841447 -0.015360212 -0.0110076945 0.020950904 -0.012726607 0.007685002 -0.00447341 -0.008446068
0.0021751444 -0.067852266 -0.01747644 0.03243525 0.015699204 -0.012641088 0.028033609 0.038149808
-0.009099833 0.02601341 0.0076168235 0.004172224 0.0017837681 0.018496927 0.052777227 -0.013292878
0.056689374 -0.002724533 -0.055147316 0.026140224 0.0059614484 -0.0047367266 0.010066853 -0.006642106
0.017236723 0.024374712 0.0026221392 0.054007005 0.018767523 0.015659614 0.032652427 0.022522306
-0.011497193 0.0767605 -0.005111446 0.027831191 -0.01712455 0.06541257 0.022162719 0.001395672
-0.0029878833 0.007930001 0.014159136 0.029347438 -0.007362198 -0.0064853644 -0.01798881 -0.00020244603
-0.0105049 -0.03685437 -0.017709613 -0.0032499437 0.021885313 -0.0037675702 -0.027195904 0.052428845
