checkpoint_critic.pth (torch_old, 542618 bytes, 5 tensors)

fcs1.weight f4 [400, 33]
0.4854963 0.39314282 0.03892267 -0.055562142 -0.24842526 -0.39138305 -0.074490316 0.034590293
0.14684753 -0.013051149 0.06262979 0.10130189 -0.009526124 -0.6060426 -0.30973026 -0.13340975
0.0019349806 0.02045147 -0.016038015 0.066300765 0.012181648 0.017111497 0.02220057 -0.13279308
-0.16732644 -0.037114866 0.42666817 0.41610408 0.07367237 -0.0076980777 -0.41620904 -0.014850784
-0.50344425 -0.5708575 -0.2932825 0.3409853 0.19035964 -0.26574326 -0.16106583 0.12545462
-0.23586048 -0.14310421 0.23712488 0.033560894 -0.048735984 0.21066134 0.2617781 0.24771962
-0.28323355 0.25069493 -0.24335776 -0.1643336 -0.11764314 -0.027845213 -0.11033328 -0.27682558
-0.07199986 -0.032216016 -0.07311905 0.1454852 0.7172897 -0.007801089 -0.014969952 -0.67740786
-0.026631946 -0.61932665 0.7752948 0.15756664 -0.24873956 -0.714489 -0.33409762 0.08661467
-0.38977033 -0.027320385 0.18681504 0.30576572 0.14607114 -0.13439196 -0.1563946 -0.44219428
-0.006922214 0.0831236 -0.14826517 -0.01068884 0.27113765 -0.09181569 -0.04186634 -0.029919036
0.25201303 0.16083497 -0.11159784 -0.0054394263 0.05482768 0.42989138 -0.07443482 0.02063505
-0.41958815 -0.005332034 -0.16361569 0.007707486 0.057166863 -0.1296058 0.1755165 -0.2987134
-0.056025602 0.15431854 0.19200829 0.0038962238 0.2174227 -0.077740006 -0.03195224 -0.01629686
-0.13024859 -0.21079043 0.083304755 0.21189566 0.115334906 -0.09767509 0.06663034 -0.019520951
-0.017802797 0.0147178415 -0.23313433 -0.09204101 0.054686677 -0.03404014 0.29568195 0.0030102534
0.036550622 -0.31466937 -0.011663478 1.383218 0.44137236 0.24708597 -0.072438106 -0.6798552
0.45088834 -0.8690782 -0.0884048 0.020487383 -0.054233503 -0.6426233 0.24466816 -0.02753531
-0.19441949 -0.06827168 0.035236087 0.014169578 0.16440858 0.6755903 -0.42130685 -0.13449396
-0.14211568 -0.070598036 -0.0050795185 0.13270374 0.005836764 0.056776997 0.1827341 0.48421374
0.16121049 0.002883125 -0.49387068 0.020813826 -0.28688726 -0.1904272 1.0688175 0.09253296
-0.403176 -0.18639112 0.5010713 -0.05304403 0.15579109 0.14796744 0.5096797 -0.096440114
0.30522868 0.24731293 0.25913715 0.14152037 0.13749827 -0.13909449 0.37002516 -0.013561645
-0.17149237 -0.11726206 0.26629597 -0.05951187 0.08241875 -0.03309723 0.029464738 -0.21887627
0.61545944 0.054056067 -0.0156071 -0.5807058 0.022673722 -2.2969787 -0.106272526 0.39967743
-0.38422635 -0.046981957 0.19948407 0.21778029 -0.15801026 0.060104035 0.19625247 0.28599143
-0.05305683 0.26741615 0.03169016 0.16527243 -0.08060817 0.3072343 0.33199614 0.8918728
0.64520633 -0.40083417 0.15573558 -0.1961885 -0.0149405105 0.00078433927 -0.111214146 0.06694897
0.04446174 0.5729873 -0.2331606 0.030676547 -0.5526826 -0.007906556 0.9882883 0.1930994
-0.24920416 0.48956987 0.14562437 -0.2677838 -0.827468 -0.20665574 0.086505175 -0.12884854
0.22368369 0.0031420414 -0.07752257 0.071929306 -0.09646363 0.17293428 0.12281767 0.17271277
-0.30598828 0.46241602 -0.06668095 0.006966694 0.10970641 0.05658906 -0.011556017 0.09233318
00000000: f992 f83e 044a c93e 616d 1f3d 2195 63bd
00000010: 3163 7ebe 5c63 c8be 618e 98bd 8dae 0d3d
00000020: 335f 163e 7dd4 55bc 0c44 803d 5e77 cf3d
00000030: 7613 1cbc 9c25 1bbf f794 9ebe 919c 08be
00000040: 2d9f fd3a d789 a73c 2862 83bc b2c8 873d
00000050: 8995 473c 692d 8c3c f8dd b53c e9fa 07be
00000060: 9f57 2bbe c205 18bd 4074 da3e 980b d53e
00000070: 8ae1 963d 2840 fcbb 5a19 d5be b450 73bc
00000080: b9e1 00bf b823 12bf 2029 96be a095 ae3e
00000090: a3ed 423e 800f 88be 71ee 24be 2d77 003e
000000a0: 6985 71be e989 12be ddd0 723e 2677 093d
000000b0: 629f 47bd 9bb7 573e c707 863e 36aa 7d3e
000000c0: fd03 91be 165b 803e c732 79be 1147 28be
000000d0: e3ee f0bd a51b e4bc 6af6 e1bd 15bc 8dbe
000000e0: aa74 93bd f1f4 03bd 71bf 95bd 13fa 143e
000000f0: 4ca0 373f 47a0 ffbb 8844 75bc 9a6a 2dbf
00000100: 3d2b dabc 318c 1ebf b879 463f 2659 213e
00000110: 95b5 7ebe c0e8 36bf d80e abbe 0863 b13d
00000120: fa8f c7be 00cf dfbc 714c 3f3e 538d 9c3e
00000130: ac93 153e 0c9e 09be e825 20be 4a67 e2be
00000140: bdd3 e2bb b53c aa3d d3d2 17be 3f20 2fbc
00000150: 8ed2 8a3e dd09 bcbd 0a7c 2bbd c418 f5bc
00000160: da07 813e ecb1 243e 698d e4bd 373d b2bb
00000170: fd92 603d b91a dc3e 4871 98bd d60a a93c
00000180: 42d4 d6be 58b8 aebb df8a 27be 148f fc3b
00000190: cd27 6a3d 62b7 04be 99ba 333e f6f0 98be
000001a0: 1a7b 65bd ae05 1e3e d29d 443e ca57 7f3b
000001b0: 0ea4 5e3e 2736 9fbd 5ae0 02bd fe80 85bc
000001c0: e35f 05be 72d9 57be af9b aa3d 2dfb 583e
000001d0: b534 ec3d e109 c8bd 7d75 883d 67ea 9fbc
000001e0: 2cd7 91bc 1a23 713c c4ba 6ebe ff7f bcbd
000001f0: 23ff 5f3d ad6d 0bbd a063 973e ac47 453b
00000200: 1bb6 153d 581c a1be 2c18 3fbc 4a0d b13f
00000210: 8ffb e13e 1b04 7d3e 6e5a 94bd fe0a 2ebf
00000220: d6da e63e e97b 5ebf 930d b5bd 28d5 a73c
00000230: f323 5ebd f682 24bf 4a8a 7a3e bb91 e1bc
00000240: e715 47be 06d2 8bbd b753 103d 8527 683c
00000250: b95a 283e 7cf3 2c3f 88b5 d7be c9b8 09be
00000260: c686 11be b495 90bd 1772 a6bb 7de3 073e
00000270: 5342 bf3b ff8e 683d a61e 3b3e ddea f73e
00000280: 5d14 253e d0f2 3c3b 9edc fcbe c281 aa3c
00000290: e3e2 92be 59ff 42be 03cf 883f ec81 bd3d
000002a0: 166d cebe 50dd 3ebe 3546 003f b244 59bd
000002b0: b387 1f3e c784 173e 5e7a 023f 6582 c5bd
000002c0: ef46 9c3e 9a3f 7d3e a0ad 843e b7ea 103e
000002d0: 59cc 0c3e c96e 0ebe f073 bd3e a931 5ebc
000002e0: b29b 2fbe 1727 f0bd f257 883e b8c2 73bd
000002f0: 29cb a83d f690 07bd 0960 f13c 1a21 60be
00000300: c08e 1d3f e569 5d3d ecb4 7fbc 23a9 14bf
00000310: 3ebe b93c b301 13c0 69a5 d9bd 85a2 cc3e
00000320: 51b9 c4be 2770 40bd 8d45 4c3e cc01 5f3e
00000330: 71cd 21be a62f 763d 68f6 483e 786d 923e
00000340: 1e52 59bd c5ea 883e 8bcd 013d 2d3d 293e
00000350: e515 a5bd d04d 9d3e 66fb a93e c751 643f
00000360: 3e2c 253f 233a cdbe 2679 1f3e a3e5 48be
00000370: 0bc9 74bc 1e9c 4d3a 3ec4 e3bd 8b1c 893d
00000380: 831d 363d 4caf 123f a7c1 6ebe 624d fb3c
00000390: 9b7c 0dbf 808a 01bc 7600 7d3f d9bb 453e
000003a0: 602f 7fbe e7a8 fa3e 8e1e 153e f51a 89be
000003b0: f1d4 53bf 909d 53be a029 b13d dff0 03be
000003c0: 560d 653e b5ea 4d3b 27c4 9ebd ac4f 933d
000003d0: b98e c5bd af15 313e d587 fb3d 9edb 303e
000003e0: 7faa 9cbe cbc1 ec3e 0690 88bd dd48 e43b
000003f0: c1ad e03d eec9 673d 7355 3dbc 2e19 bd3d

fcs1.bias f4 [400]
-0.39000857 -0.53557676 -0.33762765 -0.18499166 -0.38549218 -0.6474245 -0.49680638 -0.6691787
-0.08566789 -0.44871947 -0.12426494 -0.92781067 -0.5524207 -0.3173775 -0.1452686 -0.90994644
-0.6414026 -0.8034515 -0.66637355 -0.47205582 -0.3730805 -0.78013396 -0.6728472 -0.2597841
-0.13925536 -0.5057284 -0.5120281 -0.91374516 -0.9168874 -0.46659195 -0.3533648 -0.93025136
-0.067576945 -0.5433599 -0.6096514 -1.0113599 -0.5824987 -0.28229198 -0.4593686 -0.6304949
-0.19753142 -0.63315374 -0.51970375 -0.6238209 0.00197224 -0.9808271 -0.37594482 -0.8465976
-0.72098696 -0.5490224 -0.48285276 -0.71573776 -0.39512968 0.057668578 -0.41858593 -0.79248357
-0.6630736 -0.3712419 -0.61845 -0.7760778 -0.41494662 -0.6149541 -0.72409374 -0.4180047
-0.40042353 -0.6958955 -0.38575584 -0.44988605 -0.75883526 -0.3926746 -0.39239627 -0.6159638
-0.27697268 -0.5123863 -0.07767732 -0.5491311 -0.6247748 -0.6599151 0.15121739 -0.37772134
-0.5960666 -0.7354376 -0.022942754 -0.6331966 -0.7015905 -0.60523266 -0.8262334 -0.6437945
-0.7802285 -0.33914825 -1.1823076 -0.6276976 -0.57941467 -0.5152384 -0.57072717 -0.33713666
-0.08191391 -0.48677063 -0.26262254 -0.585875 -0.2306026 -0.33479175 -0.8320172 -0.14208236
-0.75681823 -0.3310639 -0.51443845 -0.49379128 -0.52469736 -0.2814483 -0.52388895 -0.39093262
-0.50062615 -0.64947057 -0.8168228 -0.66348875 -0.64497715 -0.13176513 -0.99855924 -0.32377857
-0.6944358 -0.36635363 -0.74599737 -0.36477408 -0.20355976 -0.5686257 -0.7033053 -0.5311378
-0.25624204 -0.66151875 -0.35009044 -0.11871525 -0.04331187 -0.69783926 -0.49380332 -0.6376105
-0.5265362 -0.51421505 -0.7837123 -0.6232677 -0.77627635 -0.49712297 -0.28100935 -0.6608613
-1.2254614 -0.29869238 -0.66679454 -0.5941573 -0.5013386 -0.44359466 -0.42261314 -0.39064375
-0.46448615 -0.19018239 -0.20650081 -0.32800695 -0.57431555 -0.44017076 -0.6393656 0.015495042
-0.10496059 -0.3389016 -0.38158214 -0.009822438 -0.66357976 -0.7214011 -0.5732248 -0.6284377
-0.38802394 -0.5275092 -0.6358822 -0.1197269 -0.5334738 -0.56780106 -0.9641391 -0.39752254
-0.58306 -0.65082824 -0.5901595 -0.3917639 -0.68732476 -0.5511879 -0.6937695 -0.42407104
-0.47290295 -0.82057387 -0.53163147 -0.30129567 -0.64310426 -0.9371238 -0.41578954 -0.30920896
-1.0849746 -0.2642772 -1.0101259 -0.5255049 -1.1008681 -0.50975055 -0.7073748 -0.11268942
-0.54313046 -0.7067585 0.011933882 -0.62595606 -1.1932917 -0.91395307 -0.5455533 -0.5687252
-0.592923 -0.3802354 -0.5497418 -0.18419147 -0.560575 -0.075671 -0.56566113 -1.0869845
-0.41436827 -0.6013898 -0.8582796 -0.430396 -0.64696157 -0.2822076 -0.72369516 -0.87271684
-0.6557935 -0.41897875 -0.2348266 -0.36991563 -0.39978176 -0.93888634 -0.93097043 -0.7819827
-0.55845785 -0.0035044209 -0.7587654 -0.5694233 -0.4864738 -0.53486586 -0.63969237 -0.6311831
-0.58082783 -0.82423586 -0.33932942 -0.2667641 -0.5779525 -0.6003835 -0.5489306 -0.3725535
-0.64703435 -0.8806576 -0.18012694 -0.18546255 -0.73953843 -0.35349125 -0.337168 -0.037283804
00000000: 34af c7be 8f1b 09bf 88dd acbe 746e 3dbe
00000010: 3b5f c5be 9dbd 25bf 685d febe 4c4f 2bbf
00000020: a672 afbd 8fbe e5be 9e7e febd 0085 6dbf
00000030: 716b 0dbf 4e7f a2be 4bc1 14be 40f2 68bf
00000040: f632 24bf ffae 4dbf 7597 2abf 4db1 f1be
00000050: 6804 bfbe dcb6 47bf b73f 2cbf 6c02 85be
00000060: f598 0ebe 6b77 01bf 4614 03bf 34eb 69bf
00000070: 22b9 6abf 24e5 eebe 3bec b4be f424 6ebf
00000080: c865 8abd a219 0bbf 1d12 1cbf 3e74 81bf
00000090: a31e 15bf 9388 90be 5c32 ebbe 1d68 21bf
000000a0: ad45 4abe 5d16 22bf 4e0b 05bf bab2 1fbf
000000b0: b240 013b 7c17 7bbf d77b c0be 9fba 58bf
000000c0: 9a92 38bf bb8c 0cbf 7a38 f7be 973a 37bf
000000d0: 704e cabe e335 6c3d e550 d6be 34e0 4abf
000000e0: 31bf 29bf 6b13 bebe bd52 1ebf 09ad 46bf
000000f0: e273 d4be a26d 1dbf 355e 39bf b604 d6be
00000100: 5004 cdbe 3526 32bf ca81 c5be 7757 e6be
00000110: 0743 42bf a50c c9be 2ae8 c8be ceaf 1dbf
00000120: 5dcf 8dbe c02b 03bf 4915 9fbd db93 0cbf
00000130: 3ef1 1fbf 32f0 28bf bbd8 1a3e b164 c1be
00000140: d297 18bf a345 3cbf 71f2 bbbc 2c19 22bf
00000150: 6f9b 33bf 87f0 1abf 0884 53bf b7cf 24bf
00000160: 0ebd 47bf d7a4 adbe db55 97bf cab0 20bf
00000170: 8554 14bf aae6 03bf 2d1b 12bf 2d9d acbe
00000180: 7bc2 a7bd 003a f9be 7676 86be e7fb 15bf
00000190: 1723 6cbe d369 abbe 14ff 54bf 0a7e 11be
000001a0: d7be 41bf 3581 a9be 3db2 03bf 36d2 fcbe
000001b0: 9152 06bf fe19 90be 961d 06bf 5228 c8be
000001c0: 0929 00bf b443 26bf 4d1b 51bf 66da 29bf
000001d0: 391d 25bf 70ed 06be 94a1 7fbf 4ec6 a5be
000001e0: 8bc6 31bf b492 bbbe aff9 3ebf abc3 babe
000001f0: f871 50be 7491 11bf d10b 34bf a6f8 07bf
00000200: 2832 83be 4b59 29bf 0e3f b3be fb20 f3bd
00000210: ca67 31bd 98a5 32bf cad3 fcbe 713a 23bf
00000220: 14cb 06bf 99a3 03bf 5fa1 48bf 798e 1fbf
00000230: 0cba 46bf e786 febe 75e0 8fbe 352e 29bf
00000240: ebdb 9cbf 35ee 98be 0cb3 2abf b11a 18bf
00000250: ba57 00bf d71e e3be c060 d8be 7502 c8be
00000260: 21d1 edbe 2cbf 42be f374 53be 87f0 a7be
00000270: 5806 13bf 105e e1be 77ad 23bf ebde 7d3c
00000280: 94f5 d6bd 8384 adbe bc5e c3be 4aee 20bc
00000290: 5de0 29bf bead 38bf dcbe 12bf 4be1 20bf
000002a0: 13ab c6be d80a 07bf 2dc9 22bf 6033 f5bd
000002b0: bd91 08bf 695b 11bf d2d1 76bf 1388 cbbe
000002c0: 6c43 15bf ae9c 26bf b114 17bf 4795 c8be
000002d0: 84f4 2fbf a61a 0dbf e19a 31bf d71f d9be
000002e0: 5620 f2be 2111 52bf 0019 08bf 6d43 9abe
000002f0: 7ba2 24bf 58e7 6fbf 5ee2 d4be a350 9ebe
00000300: 73e0 8abf 574f 87be ce4b 81bf 7d87 06bf
00000310: 3fe9 8cbf 037f 02bf 8416 35bf b6c9 e6bd
00000320: 990a 0bbf 20ee 34bf 5486 433c a83e 20bf
00000330: c8bd 98bf d4f8 69bf 62a9 0bbf fa97 11bf
00000340: cdc9 17bf 37ae c2be e1bb 0cbf b09c 3cbe
00000350: d881 0fbf 66f9 9abd 2bcf 10bf 4f22 8bbf
00000360: 1428 d4be aff4 19bf 36b8 5bbf dd5c dcbe
00000370: 469f 25bf 847d 90be 1644 39bf 5f6a 5fbf
00000380: 15e2 27bf 6284 d6be 6276 70be 9565 bdbe
00000390: 32b0 ccbe db5a 70bf 1454 6ebf 0530 48bf
000003a0: 18f7 0ebf 6daa 65bb 733e 42bf bac5 11bf
000003b0: 1813 f9be f8ec 08bf e1c2 23bf 3795 21bf
000003c0: 22b1 14bf 1f01 53bf 96bc adbe 4e95 88be
000003d0: b2f4 13bf bcb2 19bf b786 0cbf 55bf bebe
000003e0: 0ba4 25bf c772 61bf 3273 38be e5e9 3dbe
000003f0: 6452 3dbf cefc b4be 49a1 acbe e7b6 18bd

fc2.weight f4 [300, 404]
-0.13476343 -0.63472545 -0.22187051 0.07098512 0.28898597 0.15922691 0.027446626 0.14793377
-0.09162023 -0.23513196 0.012099967 -0.53401583 -0.24874228 0.10437905 -0.2517347 -0.35280645
0.14273204 -0.7364392 0.5213242 -0.8103375 0.38249472 -0.046968684 -0.25305933 -0.122579426
-0.09361687 -0.05790559 0.24795899 -0.281132 -0.6780203 -0.8162306 -0.23746932 -1.0820581
-0.09269558 0.30495387 -0.59911156 0.2876407 -0.41967702 -0.21706182 0.48809367 -0.45862955
0.1588368 -0.13490786 0.13436927 -0.2624623 0.09738425 0.06817072 -0.22032815 0.111799695
0.23469257 -0.47352156 -0.01354057 0.14533019 -0.21147507 -0.013910276 -0.16912864 0.22444965
0.51551026 0.029993478 -0.42628342 -0.021533582 -0.08792138 -0.44130698 -0.5667937 -0.39560696
-0.5509607 -0.09270759 -0.71592253 0.12602966 0.005310439 0.07017487 0.31954783 0.81952304
0.3008917 -0.27236235 0.3456202 -0.13361016 -0.705578 0.20947051 0.07835175 -0.24089946
-0.1853645 -0.54817367 -0.029525118 0.38435885 0.35759413 -0.24490516 -0.17848322 -0.12998194
0.02786487 -0.4144864 -0.7921993 -0.33612242 -0.07516898 -0.051004075 0.12765828 0.24808654
-0.033731163 -0.11167794 0.51644534 0.3484594 0.2577238 -0.1490502 -0.025232473 -0.7195067
-0.6311518 0.015734265 -0.8580254 -0.341665 -0.45741498 0.5666267 -0.37138933 0.26594293
0.060545407 -0.28406245 0.64550537 -0.10735949 -0.070073605 -0.4481491 -0.13770163 -0.16101031
0.04122628 0.009106256 -0.26729143 -0.61406803 -0.16978623 0.15882939 0.3506032 0.17749499
-0.98770326 0.4550591 0.119855314 -0.62500393 0.21069919 -0.60399383 0.102916166 -0.90749866
-0.25641695 0.16282336 -0.27188328 0.043416318 -0.6478739 0.07526537 -0.3320357 0.45433074
0.31609353 0.038834188 -0.46155673 -0.2796416 -0.13449377 -0.09969082 0.095605955 -0.10463164
-0.2514914 -0.4045397 0.28542402 0.49555063 -0.5696512 0.10552641 0.25769734 0.00782601
-0.46244052 -0.11290092 -0.015741948 0.21404473 -0.003551249 -1.1967742 0.11012468 -1.2865744
-0.21717998 -0.22002243 0.07806962 -1.0541635 0.11625605 0.06470501 -0.43796587 -0.53136516
-0.41701415 -0.13541852 0.4059961 0.8280783 -0.6171185 0.4105525 -0.08168101 -0.09895649
-0.06909512 -1.0427473 -0.062472768 -0.036610126 -0.05254123 0.19530153 0.03936437 -0.9827369
-0.9013358 0.16574168 -0.47888234 -0.19699946 0.27250132 -0.43238714 -0.77671444 -0.06176959
0.48550808 0.5005732 0.29864192 0.10393032 -0.16019864 -0.13126701 -0.12214286 -0.94056964
-0.4190211 -0.40119323 0.69797826 -1.2032194 -0.7041762 -0.19730063 -0.40126848 0.28740808
-1.4176531 -0.38713974 0.5067179 -0.5515765 0.059311014 0.041763183 0.12101103 -0.5077023
0.2905616 -0.08851548 -0.009339276 -0.42266428 0.058504704 -0.44956484 -0.18568371 -0.0417399
-0.6726305 0.036961924 -0.21773663 -0.24402095 -0.15687913 0.085201636 -0.19627316 -0.7864114
-0.595394 -0.3325195 -0.018793195 0.2093023 -0.5997543 0.4700503 0.04758722 -0.17065163
-0.1288419 -0.15144868 0.285196 -0.19798298 -0.11434241 0.12889904 0.0030028298 -0.3102413
00000000: 6dff 09be 5e7d 22bf 0632 63be a660 913d
00000010: f8f5 933e 610c 233e bfd7 e03c f37b 173e
00000020: 63a3 bbbd 6fc6 70be f13e 463c 43b5 08bf
00000030: 4cb6 7ebe afc4 d53d 5fe3 80be 0ca3 b4be
00000040: 5928 123e 4887 3cbf 8175 053f 4772 4fbf
00000050: 59d6 c33e 3c62 40bd fe90 81be ec0a fbbd
00000060: 34ba bfbd 692e 6dbd f6e8 7d3e 89f0 8fbe
00000070: bd92 2dbf 7df4 50bf 282b 73be e180 8abf
00000080: 2ed7 bdbd ea22 9c3e 605f 19bf a445 933e
00000090: e8df d6be 7445 5ebe 6ae7 f93e 7ed1 eabe
000000a0: 1da6 223e 4925 0abe 1998 093e 7561 86be
000000b0: 6571 c73d 179d 8b3d b49d 61be 3df7 e43d
000000c0: 4053 703e 6b71 f2be 44d9 5dbc 70d1 143e
000000d0: ec8c 58be ede7 63bc 0f30 2dbe 21d6 653e
000000e0: 7bf8 033f e2b4 f53c d241 dabe 3267 b0bc
000000f0: 2010 b4bd fdf2 e1be 6419 11bf ff8c cabe
00000100: c30b 0dbf 7add bdbd b346 37bf eb0d 013e
00000110: 3103 ae3b d8b7 8f3d c69b a33e 43cc 513f
00000120: 7a0e 9a3e 1473 8bbe 21f5 b03e 1ad1 08be
00000130: c3a0 34bf 707f 563e e276 a03d 59ae 76be
00000140: 31d0 3dbe 1c55 0cbf a9de f1bc afca c43e
00000150: 9416 b73e 6bc8 7abe 4ec4 36be fc19 05be
00000160: de44 e43c 9037 d4be 93cd 4abf 3d18 acbe
00000170: 32f2 99bd a6e9 50bd dab8 023e 660a 7e3e
00000180: b029 0abd 67b7 e4bd c335 043f 4569 b23e
00000190: 60f4 833e 9ea0 18be 55b4 cebc 9731 38bf
000001a0: 2a93 21bf 25e5 803c 8da7 5bbf b7ee aebe
000001b0: 4c32 eabe 730e 113f be26 bebe ac29 883e
000001c0: 76fe 773d a270 91be d73f 253f 4bdf dbbd
000001d0: c082 8fbd cd73 e5be a801 0dbe e3df 24be
000001e0: e3dc 283d 6832 153c 6cda 88be 9033 1dbf
000001f0: 71dc 2dbe 2ca4 223e 4382 b33e 3fc1 353e
00000200: 1fda 7cbf 82fd e83e b476 f53d 4200 20bf
00000210: 87c1 573e 579f 1abf b6c5 d23d d551 68bf
00000220: 1549 83be 2bbb 263e 4934 8bbe 4fd5 313d
00000230: 10db 25bf bb24 9a3d 9500 aabe 0a9e e83e
00000240: 03d7 a13e 9910 1f3d 2a51 ecbe 2f2d 8fbe
00000250: bcb8 09be b32a ccbd 0ecd c33d 1d49 d6bd
00000260: 7bc3 80be d41f cfbe 1923 923e d0b8 fd3e
00000270: a9d4 11bf 3b1e d83d e8f0 833e aa38 003c
00000280: 01c5 ecbe 9938 e7bd 42f5 80bc 8b2e 5b3e
00000290: 12bc 68bb e62f 99bf 0c89 e13d 78ae a4bf
000002a0: 6e64 5ebe 8f4d 61be f7e2 9f3d d4ee 86bf
000002b0: a717 ee3d 0f84 843d 103d e0be 8c07 08bf
000002c0: e182 d5be 27ab 0abe b9de cf3e f1fc 533f
000002d0: 7afb 1dbf f033 d23e 6048 a7bd b3a9 cabd
000002e0: be81 8dbd be78 85bf 72e3 7fbd 80f4 15bd
000002f0: 7935 57bd 20fd 473e 893c 213d a594 7bbf
00000300: f1bd 66bf 30b8 293e 1130 f5be 3aba 49be
00000310: 4b85 8b3e d961 ddbe c2d6 46bf 1c02 7dbd
00000320: 8494 f83e 9125 003f 98e7 983e 6bd9 d43d
00000330: 1d0b 24be dc6a 06be 0926 fabd 2cc9 70bf
00000340: ef89 d6be 3369 cdbe b4ae 323f 1803 9abf
00000350: e444 34bf 2d09 4abe 1073 cdbe 2727 933e
00000360: a875 b5bf 2e37 c6be 44b8 013f 1e34 0dbf
00000370: 1bf0 723d df0f 2b3d a2d4 f73d c7f8 01bf
00000380: 7dc4 943e 9b47 b5bd c303 19bc 7467 d8be
00000390: a1a2 6f3d 5d2d e6be df23 3ebe 75f7 2abd
000003a0: 8331 2cbf 6365 173d 5af6 5ebe a1e0 79be
000003b0: eca4 20be 327e ae3d d5fb 48be 4252 49bf
000003c0: be6b 18bf ff3f aabe 30f4 99bc 5853 563e
000003d0: 7f89 19bf 6faa f03e d1ea 423d 4dbf 2ebe
000003e0: 22ef 03be 5d15 1bbe 3605 923e 0dbc 4abe
000003f0: 5a2c eabd 1cfe 033e 20cb 443b f3d7 9ebe

fc2.bias f4 [300]
-0.07974886 -0.04379705 -0.16104919 -0.21595472 0.4346611 -0.095333554 -0.050778627 0.3933197
0.5554268 0.3463017 -0.017997999 -0.10442594 -0.0032476648 -0.042554818 -0.077211946 0.013326963
0.75192165 -0.1404193 -0.33342966 -0.078517474 -0.018130528 0.41109043 -0.119419284 -0.0140934335
0.21849081 0.17303546 -0.045716252 0.55315745 -0.061044913 -0.47096696 -0.015706705 -0.0337738
0.04201228 -0.084736936 -0.095690005 -0.02484512 -0.045319818 -0.10231985 -0.08656098 0.46837848
-0.055113297 -0.096166655 -0.27683783 0.10129747 -0.045388736 -0.087452374 -0.09644214 -0.047804564
0.7719709 0.64681184 -0.03229577 0.26144052 -0.22016531 -0.03723702 -0.7112243 -0.093681626
-0.064050674 -0.09535979 -0.13363121 -0.74142873 0.9696114 -0.045555722 -0.097472236 0.46940842
-0.12655064 0.5930754 -0.48796675 -0.014426967 0.3176344 0.42545217 0.39877152 -0.12875184
-0.043967616 -0.016999539 0.34585333 -0.23246974 -0.094583414 0.6206937 -0.06827231 -0.056616306
-0.3569756 -0.016463174 -0.14368695 0.85474575 -0.049340863 -0.4399414 -0.13083401 0.017063078
0.47613892 0.25518638 -0.05087777 0.3840102 0.003950914 0.3597863 0.35804233 -0.107168786
-0.06781365 0.4525906 -0.09531981 1.0957649 -0.3828419 -0.053059146 0.70370126 -0.08828025
-0.08523401 -0.05662406 0.12258949 -0.9796851 1.3109124 -0.06943462 -0.09110927 0.56901306
0.8149193 0.09973686 -0.099572204 -0.10556083 -0.1068933 -0.059697427 -0.05466103 0.48087418
0.17079166 0.67985016 0.2725118 -0.016179591 -0.104170844 0.20897163 0.3592436 -0.0486463
0.5434434 1.7141739 -0.0515054 -0.26702812 -0.0657996 0.57764125 0.20544419 -0.09514627
0.46451217 0.061475992 -0.028091924 -0.10464585 -0.037612677 -0.081105955 -0.17633902 -0.09049757
-0.12963691 -0.072004095 -0.0188931 0.13533881 -0.25026628 -0.08976512 -0.39215672 -0.10534581
-0.09118518 -0.07942314 0.19334194 -0.09219805 -0.09956206 -0.089059755 -0.11850755 -0.09144227
-0.105839446 0.29181156 0.35279787 -0.08495766 0.26015493 -0.015702957 0.64993453 -0.00936552
-0.0483219 0.1206892 0.38822916 -0.21365595 -0.061043046 -0.068315774 -0.07482446 -0.021319643
0.28663075 -0.03342102 -0.054932777 -0.08833247 -0.08652729 -0.08944423 -0.42894724 -0.046987776
0.7037447 -0.15495586 -0.054714132 0.33351126 -0.02626722 0.5256448 0.26890284 0.045192562
-0.03183146 -0.09095487 0.4934884 0.68502027 -0.05728908 -0.11189695 0.62894666 0.15370843
1.3628705 -0.11143051 0.7959772 -0.049932312 -0.09150041 0.90157914 0.54212 0.35335818
-0.2897779 -0.07563012 -0.08131219 -0.62588865 -0.051227648 0.28826687 -0.1440894 -0.22222078
1.4242384 -0.14796865 0.47076413 -0.039493427 -0.004851203 -0.33936238 -0.07890032 -0.041425753
-0.06376392 -0.067220286 -0.04062831 -0.171905 -0.036967464 0.26926684 0.23671524 -0.08047859
-0.08783442 -0.4188032 -0.049240008 -0.09237538 0.35434243 0.40787953 -0.13943169 0.008274314
-0.043474842 0.32320312 -0.04694798 1.0106329 -0.065872595 -0.02470438 -0.026431268 -0.0334063
-0.28848788 0.26128015 -0.038441405 0.5294052 -0.020621803 -0.01266246 -0.11765717 0.540459
00000000: 5f53 a3bd 8964 33bd 14ea 24be 3c23 5dbe
00000010: e68b de3e 3d3e c3bd 40fd 4fbd 3361 c93e
00000020: 7330 0e3f 754e b13e 8a70 93bc 44dd d5bd
00000030: c6d6 54bb f64d 2ebd 4c21 9ebd 5659 5a3c
00000040: f07d 403f 14ca 0fbe 4bb7 aabe c5cd a0bd
00000050: 7986 94bc 727a d23e 1992 f4bd 25e8 66bc
00000060: 0ebc 5f3e 3530 313e f740 3bbd ba9b 0d3f
00000070: 3b0a 7abd 9522 f1be 59ab 80bc 6556 0abd
00000080: 1215 2c3d 8f8a adbd 1ff9 c3bd fe87 cbbc
00000090: 46a1 39bd 128d d1bd e246 b1bd 4ecf ef3e
000000a0: 7bbe 61bd 06f3 c4bd b0bd 8dbe 0c75 cf3d
000000b0: 8ae9 39bd 3b1a b3bd 7583 c5bd b8ce 43bd
000000c0: e39f 453f 7695 253f 9248 04bd 88db 853e
000000d0: 0473 61be d885 18bd cc12 36bf 27dc bfbd
000000e0: 002d 83bd fe4b c3bd 9fd6 08be 46ce 3dbf
000000f0: 7438 783f a398 3abd 869f c7bd 4d56 f03e
00000100: 7e96 01be cad3 173f c7d6 f9be 165f 6cbc
00000110: faa0 a23e ded4 d93e c82b cc3e 86d7 03be
00000120: 6317 34bd 9e42 8bbc b013 b13e 8c0c 6ebe
00000130: f3b4 c1bd c8e5 1e3f 5ad2 8bbd 80e6 67bd
00000140: 81c5 b6be c7dd 86bc ac22 13be 9ed0 5a3f
00000150: a519 4abd 0040 e1be 5af9 05be dec7 8b3c
00000160: 7bc8 f33e caa7 823e 3565 50bd fc9c c43e
00000170: ab76 813b e935 b83e 5351 b73e 4f7b dbbd
00000180: e2e1 8abd f5b9 e73e 0837 c3bd 0642 8c3f
00000190: db03 c4be 8c54 59bd c425 343f 47cc b4bd
000001a0: 2b8f aebd a1ee 67bd 3310 fb3d a5cc 7abf
000001b0: facb a73f bd33 8ebd 7f97 babd d7aa 113f
000001c0: 8d9e 503f d742 cc3d 83ec cbbd 4730 d8bd
000001d0: e0ea dabd 4a85 74bd 3fe4 5fbd 2435 f63e
000001e0: 02e4 2e3e a90a 2e3f ab86 8b3e 108b 84bc
000001f0: 8657 d5bd a9fc 553e c7ee b73e 5841 47bd
00000200: 1b1f 0b3f 0d6a db3f 54f7 52bd e9b7 88be
00000210: f1c1 86bd 4ce0 133f f65f 523e 0cdc c2bd
00000220: 8ad4 ed3e 40ce 7b3d 0921 e6bc 9050 d6bd
00000230: c00f 1abd e11a a6bd 3792 34be ca56 b9bd
00000240: 8abf 04be e276 93bd b4c5 9abc 4296 0a3e
00000250: e722 80be c6d6 b7bd c4c8 c8be 8bbf d7bd
00000260: 4cbf babd 99a8 a2bd 6efb 453e 55d2 bcbd
00000270: 31e7 cbbd f664 b6bd 16b4 f2bd 1646 bbbd
00000280: 5ac2 d8bd 5368 953e eca1 b43e 48fe adbd
00000290: 0733 853e 7da3 80bc 1c62 263f d771 19bc
000002a0: 2fed 45bd e62b f73d f9c5 c63e a0c8 5abe
000002b0: 4608 7abd 24e9 8bbd 913d 99bd 88a6 aebc
000002c0: 44c1 923e 7be4 08bd 3101 61bd a7e7 b4bd
000002d0: 3835 b1bd 892e b7bd f99e dbbe 4176 40bd
000002e0: 9d28 343f c0ac 1ebe ed1b 60bd fdc1 aa3e
000002f0: 5a2e d7bc a890 063f a2ad 893e d61b 393d
00000300: b461 02bd 8c46 babd 83aa fc3e 7d5d 2f3f
00000310: f4a7 6abd 3a2a e5bd a602 213f be65 1d3e
00000320: 8a72 ae3f ae35 e4bd 29c5 4b3f d385 4cbd
00000330: 9164 bbbd e4cd 663f 60c8 0a3f 5deb b43e
00000340: c55d 94be f7e3 9abd 0187 a6bd 3d3a 20bf
00000350: 15d4 51bd b797 933e 2c8c 13be d88d 63be
00000360: 724d b63f 1885 17be ff07 f13e dcc3 21bd
00000370: d7f6 9ebb e8c0 adbe 7e96 a1bd 0dae 29bd
00000380: a896 82bd caaa 89bd df69 26bd dd07 30be
00000390: 326b 17bd 58dd 893e 7b65 723e f6d1 a4bd
000003a0: 88e2 b3bd 5f6d d6be e4af 49bd 4e2f bdbd
000003b0: 5f6c b53e 96d5 d03e 2ec7 0ebe fd90 073c
000003c0: ad12 32bd e17a a53e 864c 40bd 6b5c 813f
000003d0: 36e8 86bd d760 cabc 6386 d8bc 0bd5 08bd
000003e0: afb4 93be 83c6 853e bc74 1dbd 1987 073f
000003f0: 0eef a8bc 3576 4fbc 3ef6 f0bd 855b 0a3f

fc3.weight f4 [1, 300]
-0.052223347 -0.022204304 0.018508773 -0.025631541 0.016948184 0.002582768 -0.0008047851 0.018409252
0.018863995 0.030369876 -0.006379016 -0.01776904 0.00068511587 0.010920226 0.029460294 0.02911132
0.017740058 0.025286645 -0.02829165 0.013456945 0.013653811 0.029181277 0.018188465 0.04736891
0.025536375 0.011904743 -0.019047648 0.03858975 0.016852092 -0.034085996 0.044953898 -0.023310432
0.031591576 -0.029697662 -0.00041506247 -0.0032191097 0.015912063 -0.0072827553 0.020888478 0.017412668
-0.033991266 -0.0038671796 -0.028487101 0.034350637 0.016974747 0.01185658 0.012283604 0.0034938252
0.025714215 0.02159249 0.024105353 0.027423691 -0.06432456 -0.018372895 -0.024055734 -0.024872016
0.05980552 -0.012526665 0.11532056 -0.018760227 0.014149014 -0.017980563 -0.007115778 0.022734422
0.02568747 0.021301622 -0.015933616 -0.004832346 0.034947984 0.025726434 0.014534338 0.020968234
0.013390513 -0.0044732452 0.015686978 -0.028417632 -0.017886048 0.029379008 -0.013482136 -0.011441165
-0.037474655 0.045718078 -0.039607573 0.06761705 0.005748407 -0.022749955 0.0002465651 0.17105933
0.013926613 0.014252279 -0.015082603 0.017950015 0.067340925 0.01812735 0.048680414 0.010831979
0.01769542 0.020670049 0.015896495 0.033242963 -0.043227486 -0.0006161043 0.019310098 -0.0028269738
-0.013136564 0.002599458 0.031496998 -0.014774978 0.034165554 -0.008605767 -0.0062291273 0.022412878
0.018826988 0.08698322 -0.016958019 -0.006245162 -0.0023893844 0.005031816 -0.012130178 0.025112314
0.027930893 0.021565014 0.060912088 -0.0033802204 -0.0052179103 0.02409733 0.033438317 0.02057116
0.020862423 0.09882278 -0.002957813 0.03469885 -0.027506297 0.02854216 0.0525695 -0.0066056005
0.013914205 0.015739623 0.022098742 0.013999513 -0.014330924 -0.01737451 -0.08431579 0.01589995
0.0059811925 -0.007592285 -0.0076991958 0.03355459 -0.015375223 0.053452563 -0.052838918 -0.023694403
-0.0079959165 -0.0010177816 0.0530401 -0.0047806585 -0.017327836 0.0014361052 0.01940974 0.012235399
-0.0009001922 0.051300265 0.02920243 0.00039727363 0.039993744 -0.015970394 0.031947117 0.014162276
-0.027718604 0.024260957 0.025967155 -0.053625174 0.029390385 0.027757023 -0.0064251334 0.0033147538
0.028050702 0.013347385 -0.015168605 -0.008090652 0.012217792 0.0041964445 -0.0219614 -0.004150497
0.013381741 -0.011958945 0.008892103 0.02013276 0.01634555 0.016715445 0.025846355 0.07788953
0.007066911 -0.018872302 0.016598806 0.0153045 -0.014971884 -0.003631345 0.02300993 0.035637688
0.045008212 0.0035862497 0.044592075 -0.017790886 -0.016032409 0.023100942 0.017543504 0.02378436
-0.0741859 0.00976036 -0.029835938 -0.018970057 0.0010283059 0.020031491 -0.003077923 -0.052820783
0.068159655 -0.001575599 0.015602706 -0.0058490112 0.012284252 -0.058322754 0.017367877 0.008359894
-0.009227989 0.02339891 0.06658007 -0.009546708 0.0013860762 0.021826774 0.017255427 0.009253335
0.002276798 -0.022844395 0.015451702 0.00011717565 0.026897049 0.032965902 0.075650685 0.03246622
-0.005047136 0.022006057 -0.012722712 0.029925771 0.017055577 -0.0069918884 -0.019224871 -0.00767196
-0.02591173 0.08538241 -0.0014280623 0.015209037 -0.017944567 0.013805991 0.053113423 0.01588803
00000000: 26e8 55bd cde5 b5bc b69f 973c 3df9 d1bc
00000010: ebd6 8a3c a843 293b 37f8 52ba 00cf 963c
00000020: aa88 9a3c 3fca f83c 1107 d1bb 6190 91bc
00000030: 5999 333a bfea 323c b756 f13c dd7a ee3c
00000040: 9953 913c f025 cf3c e4c3 e7bc 857a 5c3c
00000050: 3cb4 5f3c 930d ef3c faff 943c e705 423d
00000060: a931 d13c 1c0c 433c d009 9cbc 4910 1e3d
00000070: 660d 8a3c c29d 0bbd 9421 383d 85f5 bebc
00000080: 2b66 013d 8348 f3bc be9c d9b9 b3f7 52bb
00000090: 045a 823c 2ea4 eebb 501e ab3c 03a5 8e3c
000000a0: 6d3a 0bbd 8270 7dbb c85d e9bc 41b3 0c3d
000000b0: a00e 8b3c 1a42 423c 2b41 493c a9f8 643b
000000c0: 9ea6 d23c bce2 b03c 9778 c53c a6a7 e03c
000000d0: 98bc 83bd c182 96bc 8810 c5bc 66c0 cbbc
000000e0: a2f6 743d a43c 4dbc 302d ec3d 0caf 99bc
000000f0: 44d1 673c f94b 93bc 792b e9bb 8a3d ba3c
00000100: 876e d23c bd80 ae3c 3787 82bc a858 9ebb
00000110: 9e25 0f3d 3ec0 d23c 6f21 6e3c 93c5 ab3c
00000120: e263 5b3c 4d94 92bb fa81 803c 18cc e8bc
00000130: c385 92bc 3fac f03c 2de4 5cbc b973 3bbc
00000140: 067f 19bd e142 3b3d 8d3b 22bd cf7a 8a3d
00000150: 225d bc3b 1d5e babc 6845 8139 2d2a 2f3e
00000160: 732c 643c 6482 693c 061d 77bc e90b 933c
00000170: 0aea 893d cf7f 943c 1d65 473d 9d78 313c
00000180: fcf5 903c 3c54 a93c 5e39 823c c629 083d
00000190: 4e0f 31bd 0f82 21ba 3630 9e3c c044 39bb
000001a0: be3a 57bc ab5b 2a3b ff02 013d c012 72bc
000001b0: 2ef1 0b3d 34ff 0cbc b51d ccbb 369b b73c
000001c0: 0e3b 9a3c 4224 b23d 8beb 8abc 37a4 ccbb
000001d0: 3897 1cbb efe1 a43b a7bd 46bc 57b8 cd3c
000001e0: 54cf e43c 1da9 b03c f47e 793d b086 5dbb
000001f0: 01fb aabb c467 c53c 9ef6 083d d984 a83c
00000200: ace7 aa3c 9963 ca3d ded7 41bb 6220 0e3d
00000210: e354 e1bc 3fd1 e93c 1e53 573d cb73 d8bb
00000220: 68f8 633c 62f0 803c 6c08 b53c 375e 653c
00000230: 40cc 6abc fd54 8ebc c2ad acbd 9d40 823c
00000240: e1fd c33b b4c8 f8bb 8949 fcbb 8a70 093d
00000250: 5ce8 7bbc 13f1 5a3d 9f6d 58bd c41a c2bc
00000260: 4e01 03bc 1567 85ba 9340 593d 12a7 9cbb
00000270: 1bf3 8dbc b23b bc3a 2d01 9f3c fc76 483c
00000280: e0fa 6bba 3a20 523d ef39 ef3c 2a49 d039
00000290: 7bd0 233d 58d4 82bc fbda 023d e408 683c
000002a0: 2012 e3bc eabe c63c 12b9 d43c 12a6 5bbd
000002b0: 1bc4 f03c b262 e33c ed89 d2bb 573c 593b
000002c0: 96ca e53c feae 5a3c be85 78bc a78e 04bc
000002d0: 222d 483c 5482 893b 65e8 b3bc e400 88bb
000002e0: 173f 5b3c 73ef 43bc 2fb0 113c 75ed a43c
000002f0: 1ae7 853c d4ee 883c bcbb d33c 8c84 9f3d
00000300: 8c91 e73b 169a 9abc 38fa 873c babf 7a3c
00000310: a24c 75bc dcfb 6dbb 527f bc3c d3f8 113d
00000320: 885a 383d 4907 6b3b 2ea6 363d 31be 91bc
00000330: 6656 83bc 303e bd3c 65b7 8f3c 6bd7 c23c
00000340: c7ee 97bd ebe9 1f3c 7f6a f4bc 1867 9bbc
00000350: 38c8 863a 1519 a43c fbb6 49bb 9b5a 58bd
00000360: 4a97 8b3d 5484 ceba 7ea2 7f3c 10a9 bfbb
00000370: e343 493c d7e3 6ebd 1447 8e3c f0f7 083c
00000380: fe30 17bc 12af bf3c 225b 883d cc69 1cbc
00000390: 00ad b53a 10ce b23c 415b 8d3c 4d9b 173c
000003a0: 5536 153b 2b24 bbbc 2329 7d3c 33bc f538
000003b0: 3357 dc3c 4107 073d bfee 9a3d 4dfb 043d
000003c0: 7262 a5bb 0c46 b43c ec72 50bc e426 f53c
000003d0: 23b8 8b3c 361c e5bb 7a7d 9dbc 1165 fbbb
000003e0: d644 d4bc f9dc ae3d d22d bbba 532f 793c
000003f0: 7c00 93bc 8632 623c 768d 593d 9d27 823c
